…
  Candidate 4/5: val_acc=0.9710 | src_err=0.0700 | tgt_err=0.0114
[BiLevel] step 20/50 | train_loss=-0.2485 | val_acc=0.9362
[BiLevel] step 40/50 | train_loss=-0.1110 | val_acc=0.9043
[BiLevel] step 50/50 | train_loss=-0.1025 | val_acc=0.9202
  Candidate 5/5: val_acc=0.7874 | src_err=0.4700 | tgt_err=0.1023
[ITER 1] ✅ Best arch = ArchConfig(enc_filters=[64], enc_kernels=[5], enc_strides=[2], enc_pool=('max', 2), enc_activation='relu', ar_layers=1, ar_heads=2, ar_hidden=64, clf_layers=2, clf_units=64, d_model=64)
[INFO] Selected architecture (A*) summary after iteration 1:
CandidateModel(
  (encoder): EncoderCNN(
    (net): Sequential(
      (0): Conv1d(38, 64, kernel_size=(5,), stride=(2,), padding=(2,))
      (1): BatchNorm1d(64, eps=1e-05, momentum=0.1, affine=True, track_running_stats=True)
      (2): ReLU()
      (3): MaxPool1d(kernel_size=2, stride=2, padding=0, dilation=1, ceil_mode=False)
    )
  )
  (to_d): Conv1d(64, 64, kernel_size=(1,), stride=(1,))
  (ar): ARTransformer(
    (enc): TransformerEncoder(
      (layers): ModuleList(
        (0): TransformerEncoderLayer(
          (self_attn): MultiheadAttention(
            (out_proj): NonDynamicallyQuantizableLinear(in_features=64, out_features=64, bias=True)
          )
          (linear1): Linear(in_features=64, out_features=64, bias=True)
          (dropout): Dropout(p=0.1, inplace=False)
          (linear2): Linear(in_features=64, out_features=64, bias=True)
          (norm1): LayerNorm((64,), eps=1e-05, elementwise_affine=True)
          (norm2): LayerNorm((64,), eps=1e-05, elementwise_affine=True)
          (dropout1): Dropout(p=0.1, inplace=False)
          (dropout2): Dropout(p=0.1, inplace=False)
        )
      )
    )
    (pos): PositionalEncoding()
  )
  (classifier): MLP(
    (net): Sequential(
      (0): Linear(in_features=64, out_features=64, bias=True)
      (1): ReLU()
      (2): Linear(in_features=64, out_features=2, bias=True)
    )
  )
  (discriminator): DomainDiscriminator(
    (net): Sequential(
      (0): Linear(in_features=64, out_features=128, bias=True)
      (1): ReLU()
      (2): Linear(in_features=128, out_features=2, bias=True)
    )
  )
)

[ITER 2/3] Pseudo-labeling & AdaptNAS search...
[BiLevel] step 20/50 | train_loss=-0.1537 | val_acc=0.8670
[BiLevel] step 40/50 | train_loss=-0.4447 | val_acc=0.9734
[BiLevel] step 50/50 | train_loss=-0.2768 | val_acc=0.9787
  Candidate 1/5: val_acc=0.9886 | src_err=0.0000 | tgt_err=0.0227
[BiLevel] step 20/50 | train_loss=-0.3119 | val_acc=0.9947
…
  Candidate 4/5: val_acc=0.9550 | src_err=0.0900 | tgt_err=0.0000
[BiLevel] step 20/50 | train_loss=-0.4872 | val_acc=0.9787
[BiLevel] step 40/50 | train_loss=-0.4151 | val_acc=0.9894
[BiLevel] step 50/50 | train_loss=-0.4210 | val_acc=0.9894
  Candidate 5/5: val_acc=0.9550 | src_err=0.0900 | tgt_err=0.0000
[ITER 2] ✅ Best arch = ArchConfig(enc_filters=[64, 32], enc_kernels=[3, 5], enc_strides=[2, 2], enc_pool=('max', 2), enc_activation='lrelu', ar_layers=3, ar_heads=4, ar_hidden=64, clf_layers=1, clf_units=32, d_model=128)
[INFO] Selected architecture (A*) summary after iteration 2:
CandidateModel(
  (encoder): EncoderCNN(
    (net): Sequential(
      (0): Conv1d(38, 64, kernel_size=(3,), stride=(2,), padding=(1,))
      (1): BatchNorm1d(64, eps=1e-05, momentum=0.1, affine=True, track_running_stats=True)
      (2): ReLU()
      (3): MaxPool1d(kernel_size=2, stride=2, padding=0, dilation=1, ceil_mode=False)
      (4): Conv1d(64, 32, kernel_size=(5,), stride=(2,), padding=(2,))
      (5): BatchNorm1d(32, eps=1e-05, momentum=0.1, affine=True, track_running_stats=True)
      (6): ReLU()
      (7): MaxPool1d(kernel_size=2, stride=2, padding=0, dilation=1, ceil_mode=False)
    )
  )
  (to_d): Conv1d(32, 128, kernel_size=(1,), stride=(1,))
  (ar): ARTransformer(
    (enc): TransformerEncoder(
      (layers): ModuleList(
        (0-2): 3 x TransformerEncoderLayer(
          (self_attn): MultiheadAttention(
            (out_proj): NonDynamicallyQuantizableLinear(in_features=128, out_features=128, bias=True)
          )
          (linear1): Linear(in_features=128, out_features=64, bias=True)
          (dropout): Dropout(p=0.1, inplace=False)
          (linear2): Linear(in_features=64, out_features=128, bias=True)
          (norm1): LayerNorm((128,), eps=1e-05, elementwise_affine=True)
          (norm2): LayerNorm((128,), eps=1e-05, elementwise_affine=True)
          (dropout1): Dropout(p=0.1, inplace=False)
          (dropout2): Dropout(p=0.1, inplace=False)
        )
      )
    )
    (pos): PositionalEncoding()
  )
  (classifier): MLP(
    (net): Sequential(
      (0): Linear(in_features=128, out_features=2, bias=True)
    )
  )
  (discriminator): DomainDiscriminator(
    (net): Sequential(
      (0): Linear(in_features=128, out_features=128, bias=True)
      (1): ReLU()
      (2): Linear(in_features=128, out_features=2, bias=True)
    )
  )
)

[ITER 3/3] Pseudo-labeling & AdaptNAS search...
[BiLevel] step 20/50 | train_loss=-0.5599 | val_acc=0.7660
[BiLevel] step 40/50 | train_loss=-0.5489 | val_acc=0.7660
[BiLevel] step 50/50 | train_loss=-0.4660 | val_acc=0.7660
  Candidate 1/5: val_acc=0.8500 | src_err=0.0000 | tgt_err=0.5000
[BiLevel] step 20/50 | train_loss=-0.3947 | val_acc=0.7660
…
  Candidate 4/5: val_acc=0.9476 | src_err=0.0700 | tgt_err=0.0114
[BiLevel] step 20/50 | train_loss=-0.7089 | val_acc=0.8351
[BiLevel] step 40/50 | train_loss=-0.6975 | val_acc=0.9574
[BiLevel] step 50/50 | train_loss=-0.4544 | val_acc=0.9574
  Candidate 5/5: val_acc=0.9898 | src_err=0.0000 | tgt_err=0.0341
[ITER 3] ✅ Best arch = ArchConfig(enc_filters=[16], enc_kernels=[3], enc_strides=[2], enc_pool=('avg', 2), enc_activation='relu', ar_layers=2, ar_heads=2, ar_hidden=128, clf_layers=1, clf_units=32, d_model=128)
[INFO] Selected architecture (A*) summary after iteration 3:
CandidateModel(
  (encoder): EncoderCNN(
    (net): Sequential(
      (0): Conv1d(38, 16, kernel_size=(3,), stride=(2,), padding=(1,))
      (1): BatchNorm1d(16, eps=1e-05, momentum=0.1, affine=True, track_running_stats=True)
      (2): ReLU()
      (3): AvgPool1d(kernel_size=(2,), stride=(2,), padding=(0,))
    )
  )
  (to_d): Conv1d(16, 128, kernel_size=(1,), stride=(1,))
  (ar): ARTransformer(
    (enc): TransformerEncoder(
      (layers): ModuleList(
        (0-1): 2 x TransformerEncoderLayer(
          (self_attn): MultiheadAttention(
            (out_proj): NonDynamicallyQuantizableLinear(in_features=128, out_features=128, bias=True)
          )
          (linear1): Linear(in_features=128, out_features=128, bias=True)
          (dropout): Dropout(p=0.1, inplace=False)
          (linear2): Linear(in_features=128, out_features=128, bias=True)
          (norm1): LayerNorm((128,), eps=1e-05, elementwise_affine=True)
          (norm2): LayerNorm((128,), eps=1e-05, elementwise_affine=True)
          (dropout1): Dropout(p=0.1, inplace=False)
          (dropout2): Dropout(p=0.1, inplace=False)
        )
      )
    )
    (pos): PositionalEncoding()
  )
  (classifier): MLP(
    (net): Sequential(
      (0): Linear(in_features=128, out_features=2, bias=True)
    )
  )
  (discriminator): DomainDiscriminator(
    (net): Sequential(
      (0): Linear(in_features=128, out_features=128, bias=True)
      (1): ReLU()
      (2): Linear(in_features=128, out_features=2, bias=True)
    )
  )
)
[INFO] Architecture operation probabilities:
  Op 0: 0.2496
  Op 1: 0.1287
  Op 2: 0.1714
  Op 3: 0.0365
  Op 4: 0.0230
  Op 5: 0.0444
  Op 6: 0.1693
  Op 7: 0.0210
  Op 8: 0.0458
  Op 9: 0.0209
  Op 10: 0.0894
[INFO] Pseudo-labels generated: 88 samples
[INFO] Average pseudo-label confidence: 0.9986
[INFO] Final training with best architecture...
…
