…
  Candidate 4/5: val_acc=1.0000 | src_err=0.0000 | tgt_err=0.0000
[BiLevel] step 20/50 | train_loss=-0.1349 | val_acc=0.9186
[BiLevel] step 40/50 | train_loss=-0.3496 | val_acc=0.9419
[BiLevel] step 50/50 | train_loss=-0.3483 | val_acc=0.9477
  Candidate 5/5: val_acc=0.9903 | src_err=0.0000 | tgt_err=0.0139
[ITER 1] ✅ Best arch = ArchConfig(enc_filters=[64, 32], enc_kernels=[5, 3], enc_strides=[1, 1], enc_pool=('avg', 2), enc_activation='relu', ar_layers=1, ar_heads=4, ar_hidden=128, clf_layers=2, clf_units=64, d_model=128)
[INFO] Selected architecture (A*) summary after iteration 1:
CandidateModel(
  (encoder): EncoderCNN(
    (net): Sequential(
      (0): Conv1d(38, 64, kernel_size=(5,), stride=(1,), padding=(2,))
      (1): BatchNorm1d(64, eps=1e-05, momentum=0.1, affine=True, track_running_stats=True)
      (2): ReLU()
      (3): AvgPool1d(kernel_size=(2,), stride=(2,), padding=(0,))
      (4): Conv1d(64, 32, kernel_size=(3,), stride=(1,), padding=(1,))
      (5): BatchNorm1d(32, eps=1e-05, momentum=0.1, affine=True, track_running_stats=True)
      (6): ReLU()
      (7): AvgPool1d(kernel_size=(2,), stride=(2,), padding=(0,))
    )
  )
  (to_d): Conv1d(32, 128, kernel_size=(1,), stride=(1,))
  (ar): ARTransformer(
    (enc): TransformerEncoder(
      (layers): ModuleList(
        (0): TransformerEncoderLayer(
          (self_attn): MultiheadAttention(
            (out_proj): NonDynamicallyQuantizableLinear(in_features=128, out_features=128, bias=True)
          )
          (linear1): Linear(in_features=128, out_features=128, bias=True)
          (dropout): Dropout(p=0.1, inplace=False)
          (linear2): Linear(in_features=128, out_features=128, bias=True)
          (norm1): LayerNorm((128,), eps=1e-05, elementwise_affine=True)
          (norm2): LayerNorm((128,), eps=1e-05, elementwise_affine=True)
          (dropout1): Dropout(p=0.1, inplace=False)
          (dropout2): Dropout(p=0.1, inplace=False)
        )
      )
    )
    (pos): PositionalEncoding()
  )
  (classifier): MLP(
    (net): Sequential(
      (0): Linear(in_features=128, out_features=64, bias=True)
      (1): ReLU()
      (2): Linear(in_features=64, out_features=2, bias=True)
    )
  )
  (discriminator): DomainDiscriminator(
    (net): Sequential(
      (0): Linear(in_features=128, out_features=128, bias=True)
      (1): ReLU()
      (2): Linear(in_features=128, out_features=2, bias=True)
    )
  )
)

[ITER 2/3] Pseudo-labeling & AdaptNAS search...
[BiLevel] step 20/50 | train_loss=-0.4368 | val_acc=0.9709
[BiLevel] step 40/50 | train_loss=-0.6562 | val_acc=0.9942
[BiLevel] step 50/50 | train_loss=-0.6429 | val_acc=0.9942
  Candidate 1/5: val_acc=0.9931 | src_err=0.0000 | tgt_err=0.0139
[BiLevel] step 20/50 | train_loss=-0.3738 | val_acc=0.9244
…
[BiLevel] step 20/50 | train_loss=-0.1479 | val_acc=0.9070
[BiLevel] step 40/50 | train_loss=-0.6556 | val_acc=0.9767
[BiLevel] step 50/50 | train_loss=-0.4272 | val_acc=0.9767
  Candidate 5/5: val_acc=0.9931 | src_err=0.0000 | tgt_err=0.0139
[ITER 2] ✅ Best arch = ArchConfig(enc_filters=[32, 32, 32], enc_kernels=[3, 3, 5], enc_strides=[1, 1, 2], enc_pool=('max', 2), enc_activation='relu', ar_layers=2, ar_heads=2, ar_hidden=64, clf_layers=2, clf_units=32, d_model=64)
[INFO] Selected architecture (A*) summary after iteration 2:
CandidateModel(
  (encoder): EncoderCNN(
    (net): Sequential(
      (0): Conv1d(38, 32, kernel_size=(3,), stride=(1,), padding=(1,))
      (1): BatchNorm1d(32, eps=1e-05, momentum=0.1, affine=True, track_running_stats=True)
      (2): ReLU()
      (3): MaxPool1d(kernel_size=2, stride=2, padding=0, dilation=1, ceil_mode=False)
      (4): Conv1d(32, 32, kernel_size=(3,), stride=(1,), padding=(1,))
      (5): BatchNorm1d(32, eps=1e-05, momentum=0.1, affine=True, track_running_stats=True)
      (6): ReLU()
      (7): MaxPool1d(kernel_size=2, stride=2, padding=0, dilation=1, ceil_mode=False)
      (8): Conv1d(32, 32, kernel_size=(5,), stride=(2,), padding=(2,))
      (9): BatchNorm1d(32, eps=1e-05, momentum=0.1, affine=True, track_running_stats=True)
      (10): ReLU()
      (11): MaxPool1d(kernel_size=2, stride=2, padding=0, dilation=1, ceil_mode=False)
    )
  )
  (to_d): Conv1d(32, 64, kernel_size=(1,), stride=(1,))
  (ar): ARTransformer(
    (enc): TransformerEncoder(
      (layers): ModuleList(
        (0-1): 2 x TransformerEncoderLayer(
          (self_attn): MultiheadAttention(
            (out_proj): NonDynamicallyQuantizableLinear(in_features=64, out_features=64, bias=True)
          )
          (linear1): Linear(in_features=64, out_features=64, bias=True)
          (dropout): Dropout(p=0.1, inplace=False)
          (linear2): Linear(in_features=64, out_features=64, bias=True)
          (norm1): LayerNorm((64,), eps=1e-05, elementwise_affine=True)
          (norm2): LayerNorm((64,), eps=1e-05, elementwise_affine=True)
          (dropout1): Dropout(p=0.1, inplace=False)
          (dropout2): Dropout(p=0.1, inplace=False)
        )
      )
    )
    (pos): PositionalEncoding()
  )
  (classifier): MLP(
    (net): Sequential(
      (0): Linear(in_features=64, out_features=32, bias=True)
      (1): ReLU()
      (2): Linear(in_features=32, out_features=2, bias=True)
    )
  )
  (discriminator): DomainDiscriminator(
    (net): Sequential(
      (0): Linear(in_features=64, out_features=128, bias=True)
      (1): ReLU()
      (2): Linear(in_features=128, out_features=2, bias=True)
    )
  )
)

[ITER 3/3] Pseudo-labeling & AdaptNAS search...
[BiLevel] step 20/50 | train_loss=-0.4776 | val_acc=0.9186
[BiLevel] step 40/50 | train_loss=-0.8010 | val_acc=0.9709
[BiLevel] step 50/50 | train_loss=-0.8046 | val_acc=0.9709
  Candidate 1/5: val_acc=0.9833 | src_err=0.0000 | tgt_err=0.0556
[BiLevel] step 20/50 | train_loss=-0.9416 | val_acc=0.9884
…
[BiLevel] step 20/50 | train_loss=-0.6995 | val_acc=0.9244
[BiLevel] step 40/50 | train_loss=-0.7504 | val_acc=0.9826
[BiLevel] step 50/50 | train_loss=-0.7539 | val_acc=0.9884
  Candidate 5/5: val_acc=0.9833 | src_err=0.0000 | tgt_err=0.0556
[ITER 3] ✅ Best arch = ArchConfig(enc_filters=[64, 64, 64], enc_kernels=[3, 5, 5], enc_strides=[1, 1, 2], enc_pool=('avg', 2), enc_activation='lrelu', ar_layers=3, ar_heads=4, ar_hidden=64, clf_layers=1, clf_units=64, d_model=128)
[INFO] Selected architecture (A*) summary after iteration 3:
CandidateModel(
  (encoder): EncoderCNN(
    (net): Sequential(
      (0): Conv1d(38, 64, kernel_size=(3,), stride=(1,), padding=(1,))
      (1): BatchNorm1d(64, eps=1e-05, momentum=0.1, affine=True, track_running_stats=True)
      (2): ReLU()
      (3): AvgPool1d(kernel_size=(2,), stride=(2,), padding=(0,))
      (4): Conv1d(64, 64, kernel_size=(5,), stride=(1,), padding=(2,))
      (5): BatchNorm1d(64, eps=1e-05, momentum=0.1, affine=True, track_running_stats=True)
      (6): ReLU()
      (7): AvgPool1d(kernel_size=(2,), stride=(2,), padding=(0,))
      (8): Conv1d(64, 64, kernel_size=(5,), stride=(2,), padding=(2,))
      (9): BatchNorm1d(64, eps=1e-05, momentum=0.1, affine=True, track_running_stats=True)
      (10): ReLU()
      (11): AvgPool1d(kernel_size=(2,), stride=(2,), padding=(0,))
    )
  )
  (to_d): Conv1d(64, 128, kernel_size=(1,), stride=(1,))
  (ar): ARTransformer(
    (enc): TransformerEncoder(
      (layers): ModuleList(
        (0-2): 3 x TransformerEncoderLayer(
          (self_attn): MultiheadAttention(
            (out_proj): NonDynamicallyQuantizableLinear(in_features=128, out_features=128, bias=True)
          )
          (linear1): Linear(in_features=128, out_features=64, bias=True)
          (dropout): Dropout(p=0.1, inplace=False)
          (linear2): Linear(in_features=64, out_features=128, bias=True)
          (norm1): LayerNorm((128,), eps=1e-05, elementwise_affine=True)
          (norm2): LayerNorm((128,), eps=1e-05, elementwise_affine=True)
          (dropout1): Dropout(p=0.1, inplace=False)
          (dropout2): Dropout(p=0.1, inplace=False)
        )
      )
    )
    (pos): PositionalEncoding()
  )
  (classifier): MLP(
    (net): Sequential(
      (0): Linear(in_features=128, out_features=2, bias=True)
    )
  )
  (discriminator): DomainDiscriminator(
    (net): Sequential(
      (0): Linear(in_features=128, out_features=128, bias=True)
      (1): ReLU()
      (2): Linear(in_features=128, out_features=2, bias=True)
    )
  )
)
[INFO] Architecture operation probabilities:
  Op 0: 0.2258
  Op 1: 0.1200
  Op 2: 0.1246
  Op 3: 0.0912
  Op 4: 0.0601
  Op 5: 0.0540
  Op 6: 0.0426
  Op 7: 0.1988
  Op 8: 0.0168
  Op 9: 0.0492
  Op 10: 0.0168
[INFO] Pseudo-labels generated: 72 samples
[INFO] Average pseudo-label confidence: 0.9971
[INFO] Final training with best architecture...
…
