…
  Candidate 4/5: val_acc=0.7000 | src_err=1.0000 | tgt_err=0.0000
[BiLevel] step 20/50 | train_loss=-0.2254 | val_acc=0.6891
[BiLevel] step 40/50 | train_loss=-0.3105 | val_acc=0.6975
[BiLevel] step 50/50 | train_loss=-0.3159 | val_acc=0.6975
  Candidate 5/5: val_acc=0.5579 | src_err=0.0000 | tgt_err=0.6316
[ITER 1] ✅ Best arch = ArchConfig(enc_filters=[16, 32], enc_kernels=[3, 5], enc_strides=[2, 2], enc_pool=('avg', 2), enc_activation='relu', ar_layers=1, ar_heads=4, ar_hidden=64, clf_layers=1, clf_units=32, d_model=64)
[INFO] Selected architecture (A*) summary after iteration 1:
CandidateModel(
  (encoder): EncoderCNN(
    (net): Sequential(
      (0): Conv1d(38, 16, kernel_size=(3,), stride=(2,), padding=(1,))
      (1): BatchNorm1d(16, eps=1e-05, momentum=0.1, affine=True, track_running_stats=True)
      (2): ReLU()
      (3): AvgPool1d(kernel_size=(2,), stride=(2,), padding=(0,))
      (4): Conv1d(16, 32, kernel_size=(5,), stride=(2,), padding=(2,))
      (5): BatchNorm1d(32, eps=1e-05, momentum=0.1, affine=True, track_running_stats=True)
      (6): ReLU()
      (7): AvgPool1d(kernel_size=(2,), stride=(2,), padding=(0,))
    )
  )
  (to_d): Conv1d(32, 64, kernel_size=(1,), stride=(1,))
  (ar): ARTransformer(
    (enc): TransformerEncoder(
      (layers): ModuleList(
        (0): TransformerEncoderLayer(
          (self_attn): MultiheadAttention(
            (out_proj): NonDynamicallyQuantizableLinear(in_features=64, out_features=64, bias=True)
          )
          (linear1): Linear(in_features=64, out_features=64, bias=True)
          (dropout): Dropout(p=0.1, inplace=False)
          (linear2): Linear(in_features=64, out_features=64, bias=True)
          (norm1): LayerNorm((64,), eps=1e-05, elementwise_affine=True)
          (norm2): LayerNorm((64,), eps=1e-05, elementwise_affine=True)
          (dropout1): Dropout(p=0.1, inplace=False)
          (dropout2): Dropout(p=0.1, inplace=False)
        )
      )
    )
    (pos): PositionalEncoding()
  )
  (classifier): MLP(
    (net): Sequential(
      (0): Linear(in_features=64, out_features=2, bias=True)
    )
  )
  (discriminator): DomainDiscriminator(
    (net): Sequential(
      (0): Linear(in_features=64, out_features=128, bias=True)
      (1): ReLU()
      (2): Linear(in_features=128, out_features=2, bias=True)
    )
  )
)

[ITER 2/3] Pseudo-labeling & AdaptNAS search...
[BiLevel] step 20/50 | train_loss=-0.3400 | val_acc=0.6975
[BiLevel] step 40/50 | train_loss=-0.1844 | val_acc=0.6975
[BiLevel] step 50/50 | train_loss=-0.1800 | val_acc=0.6975
  Candidate 1/5: val_acc=0.5000 | src_err=1.0000 | tgt_err=0.0000
[BiLevel] step 20/50 | train_loss=-0.3294 | val_acc=0.6975
…
  Candidate 4/5: val_acc=0.5000 | src_err=1.0000 | tgt_err=0.0000
[BiLevel] step 20/50 | train_loss=-0.5422 | val_acc=0.6975
[BiLevel] step 40/50 | train_loss=-0.3089 | val_acc=0.6975
[BiLevel] step 50/50 | train_loss=-0.2829 | val_acc=0.6975
  Candidate 5/5: val_acc=0.5000 | src_err=1.0000 | tgt_err=0.0000
[ITER 2] ✅ Best arch = ArchConfig(enc_filters=[64], enc_kernels=[3], enc_strides=[1], enc_pool=('avg', 2), enc_activation='relu', ar_layers=3, ar_heads=2, ar_hidden=64, clf_layers=2, clf_units=32, d_model=128)
[INFO] Selected architecture (A*) summary after iteration 2:
CandidateModel(
  (encoder): EncoderCNN(
    (net): Sequential(
      (0): Conv1d(38, 64, kernel_size=(3,), stride=(1,), padding=(1,))
      (1): BatchNorm1d(64, eps=1e-05, momentum=0.1, affine=True, track_running_stats=True)
      (2): ReLU()
      (3): AvgPool1d(kernel_size=(2,), stride=(2,), padding=(0,))
    )
  )
  (to_d): Conv1d(64, 128, kernel_size=(1,), stride=(1,))
  (ar): ARTransformer(
    (enc): TransformerEncoder(
      (layers): ModuleList(
        (0-2): 3 x TransformerEncoderLayer(
          (self_attn): MultiheadAttention(
            (out_proj): NonDynamicallyQuantizableLinear(in_features=128, out_features=128, bias=True)
          )
          (linear1): Linear(in_features=128, out_features=64, bias=True)
          (dropout): Dropout(p=0.1, inplace=False)
          (linear2): Linear(in_features=64, out_features=128, bias=True)
          (norm1): LayerNorm((128,), eps=1e-05, elementwise_affine=True)
          (norm2): LayerNorm((128,), eps=1e-05, elementwise_affine=True)
          (dropout1): Dropout(p=0.1, inplace=False)
          (dropout2): Dropout(p=0.1, inplace=False)
        )
      )
    )
    (pos): PositionalEncoding()
  )
  (classifier): MLP(
    (net): Sequential(
      (0): Linear(in_features=128, out_features=32, bias=True)
      (1): ReLU()
      (2): Linear(in_features=32, out_features=2, bias=True)
    )
  )
  (discriminator): DomainDiscriminator(
    (net): Sequential(
      (0): Linear(in_features=128, out_features=128, bias=True)
      (1): ReLU()
      (2): Linear(in_features=128, out_features=2, bias=True)
    )
  )
)

[ITER 3/3] Pseudo-labeling & AdaptNAS search...
[BiLevel] step 20/50 | train_loss=-0.8479 | val_acc=0.6923
[BiLevel] step 40/50 | train_loss=-0.8771 | val_acc=0.6923
[BiLevel] step 50/50 | train_loss=-0.8153 | val_acc=0.6923
  Candidate 1/5: val_acc=0.3000 | src_err=1.0000 | tgt_err=0.0000
[BiLevel] step 20/50 | train_loss=-0.1706 | val_acc=0.6923
…
[BiLevel] step 20/50 | train_loss=-0.7712 | val_acc=0.6752
[BiLevel] step 40/50 | train_loss=-0.7534 | val_acc=0.6752
[BiLevel] step 50/50 | train_loss=-0.7069 | val_acc=0.6752
  Candidate 5/5: val_acc=0.2824 | src_err=1.0000 | tgt_err=0.0588
[ITER 3] ✅ Best arch = ArchConfig(enc_filters=[16, 16, 32], enc_kernels=[3, 5, 5], enc_strides=[1, 2, 2], enc_pool=('avg', 2), enc_activation='lrelu', ar_layers=3, ar_heads=4, ar_hidden=64, clf_layers=1, clf_units=64, d_model=64)
[INFO] Selected architecture (A*) summary after iteration 3:
CandidateModel(
  (encoder): EncoderCNN(
    (net): Sequential(
      (0): Conv1d(38, 16, kernel_size=(3,), stride=(1,), padding=(1,))
      (1): BatchNorm1d(16, eps=1e-05, momentum=0.1, affine=True, track_running_stats=True)
      (2): ReLU()
      (3): AvgPool1d(kernel_size=(2,), stride=(2,), padding=(0,))
      (4): Conv1d(16, 16, kernel_size=(5,), stride=(2,), padding=(2,))
      (5): BatchNorm1d(16, eps=1e-05, momentum=0.1, affine=True, track_running_stats=True)
      (6): ReLU()
      (7): AvgPool1d(kernel_size=(2,), stride=(2,), padding=(0,))
      (8): Conv1d(16, 32, kernel_size=(5,), stride=(2,), padding=(2,))
      (9): BatchNorm1d(32, eps=1e-05, momentum=0.1, affine=True, track_running_stats=True)
      (10): ReLU()
      (11): AvgPool1d(kernel_size=(2,), stride=(2,), padding=(0,))
    )
  )
  (to_d): Conv1d(32, 64, kernel_size=(1,), stride=(1,))
  (ar): ARTransformer(
    (enc): TransformerEncoder(
      (layers): ModuleList(
        (0-2): 3 x TransformerEncoderLayer(
          (self_attn): MultiheadAttention(
            (out_proj): NonDynamicallyQuantizableLinear(in_features=64, out_features=64, bias=True)
          )
          (linear1): Linear(in_features=64, out_features=64, bias=True)
          (dropout): Dropout(p=0.1, inplace=False)
          (linear2): Linear(in_features=64, out_features=64, bias=True)
          (norm1): LayerNorm((64,), eps=1e-05, elementwise_affine=True)
          (norm2): LayerNorm((64,), eps=1e-05, elementwise_affine=True)
          (dropout1): Dropout(p=0.1, inplace=False)
          (dropout2): Dropout(p=0.1, inplace=False)
        )
      )
    )
    (pos): PositionalEncoding()
  )
  (classifier): MLP(
    (net): Sequential(
      (0): Linear(in_features=64, out_features=2, bias=True)
    )
  )
  (discriminator): DomainDiscriminator(
    (net): Sequential(
      (0): Linear(in_features=64, out_features=128, bias=True)
      (1): ReLU()
      (2): Linear(in_features=128, out_features=2, bias=True)
    )
  )
)
[INFO] Architecture operation probabilities:
  Op 0: 0.0307
  Op 1: 0.1163
  Op 2: 0.0257
  Op 3: 0.2359
  Op 4: 0.1121
  Op 5: 0.1209
  Op 6: 0.0426
  Op 7: 0.0047
  Op 8: 0.0699
  Op 9: 0.2268
  Op 10: 0.0145
[INFO] Pseudo-labels generated: 17 samples
[INFO] Average pseudo-label confidence: 0.9984
[INFO] Final training with best architecture...
…
