…
[BiLevel] step 20/50 | train_loss=0.1244 | val_acc=0.8023
[BiLevel] step 40/50 | train_loss=-0.0054 | val_acc=0.8430
[BiLevel] step 50/50 | train_loss=0.0777 | val_acc=0.8430
  Candidate 5/5: val_acc=0.7569 | src_err=0.0000 | tgt_err=0.3472
[ITER 1] ✅ Best arch = ArchConfig(enc_filters=[64, 64, 32], enc_kernels=[5, 3, 3], enc_strides=[1, 1, 1], enc_pool=('avg', 2), enc_activation='lrelu', ar_layers=1, ar_heads=4, ar_hidden=128, clf_layers=1, clf_units=64, d_model=64)
[INFO] Selected architecture (A*) summary after iteration 1:
CandidateModel(
  (encoder): EncoderCNN(
    (net): Sequential(
      (0): Conv1d(38, 64, kernel_size=(5,), stride=(1,), padding=(2,))
      (1): BatchNorm1d(64, eps=1e-05, momentum=0.1, affine=True, track_running_stats=True)
      (2): ReLU()
      (3): AvgPool1d(kernel_size=(2,), stride=(2,), padding=(0,))
      (4): Conv1d(64, 64, kernel_size=(3,), stride=(1,), padding=(1,))
      (5): BatchNorm1d(64, eps=1e-05, momentum=0.1, affine=True, track_running_stats=True)
      (6): ReLU()
      (7): AvgPool1d(kernel_size=(2,), stride=(2,), padding=(0,))
      (8): Conv1d(64, 32, kernel_size=(3,), stride=(1,), padding=(1,))
      (9): BatchNorm1d(32, eps=1e-05, momentum=0.1, affine=True, track_running_stats=True)
      (10): ReLU()
      (11): AvgPool1d(kernel_size=(2,), stride=(2,), padding=(0,))
    )
  )
  (to_d): Conv1d(32, 64, kernel_size=(1,), stride=(1,))
  (ar): ARTransformer(
    (enc): TransformerEncoder(
      (layers): ModuleList(
        (0): TransformerEncoderLayer(
          (self_attn): MultiheadAttention(
            (out_proj): NonDynamicallyQuantizableLinear(in_features=64, out_features=64, bias=True)
          )
          (linear1): Linear(in_features=64, out_features=128, bias=True)
          (dropout): Dropout(p=0.1, inplace=False)
          (linear2): Linear(in_features=128, out_features=64, bias=True)
          (norm1): LayerNorm((64,), eps=1e-05, elementwise_affine=True)
          (norm2): LayerNorm((64,), eps=1e-05, elementwise_affine=True)
          (dropout1): Dropout(p=0.1, inplace=False)
          (dropout2): Dropout(p=0.1, inplace=False)
        )
      )
    )
    (pos): PositionalEncoding()
  )
  (classifier): MLP(
    (net): Sequential(
      (0): Linear(in_features=64, out_features=2, bias=True)
    )
  )
  (discriminator): DomainDiscriminator(
    (net): Sequential(
      (0): Linear(in_features=64, out_features=128, bias=True)
      (1): ReLU()
      (2): Linear(in_features=128, out_features=2, bias=True)
    )
  )
)

[ITER 2/3] Pseudo-labeling & AdaptNAS search...
[BiLevel] step 20/50 | train_loss=-0.3103 | val_acc=0.8314
[BiLevel] step 40/50 | train_loss=-0.3910 | val_acc=0.8547
[BiLevel] step 50/50 | train_loss=-0.4884 | val_acc=0.8547
  Candidate 1/5: val_acc=0.8264 | src_err=0.0000 | tgt_err=0.3472
[BiLevel] step 20/50 | train_loss=-0.6356 | val_acc=0.9302
…
[BiLevel] step 20/50 | train_loss=-0.3654 | val_acc=0.9244
[BiLevel] step 40/50 | train_loss=-0.5025 | val_acc=0.9244
[BiLevel] step 50/50 | train_loss=-0.4638 | val_acc=0.9302
  Candidate 5/5: val_acc=0.9342 | src_err=0.0900 | tgt_err=0.0417
[ITER 2] ✅ Best arch = ArchConfig(enc_filters=[16, 32, 16], enc_kernels=[5, 3, 3], enc_strides=[1, 2, 1], enc_pool=None, enc_activation='lrelu', ar_layers=2, ar_heads=4, ar_hidden=128, clf_layers=1, clf_units=32, d_model=64)
[INFO] Selected architecture (A*) summary after iteration 2:
CandidateModel(
  (encoder): EncoderCNN(
    (net): Sequential(
      (0): Conv1d(38, 16, kernel_size=(5,), stride=(1,), padding=(2,))
      (1): BatchNorm1d(16, eps=1e-05, momentum=0.1, affine=True, track_running_stats=True)
      (2): ReLU()
      (3): Conv1d(16, 32, kernel_size=(3,), stride=(2,), padding=(1,))
      (4): BatchNorm1d(32, eps=1e-05, momentum=0.1, affine=True, track_running_stats=True)
      (5): ReLU()
      (6): Conv1d(32, 16, kernel_size=(3,), stride=(1,), padding=(1,))
      (7): BatchNorm1d(16, eps=1e-05, momentum=0.1, affine=True, track_running_stats=True)
      (8): ReLU()
    )
  )
  (to_d): Conv1d(16, 64, kernel_size=(1,), stride=(1,))
  (ar): ARTransformer(
    (enc): TransformerEncoder(
      (layers): ModuleList(
        (0-1): 2 x TransformerEncoderLayer(
          (self_attn): MultiheadAttention(
            (out_proj): NonDynamicallyQuantizableLinear(in_features=64, out_features=64, bias=True)
          )
          (linear1): Linear(in_features=64, out_features=128, bias=True)
          (dropout): Dropout(p=0.1, inplace=False)
          (linear2): Linear(in_features=128, out_features=64, bias=True)
          (norm1): LayerNorm((64,), eps=1e-05, elementwise_affine=True)
          (norm2): LayerNorm((64,), eps=1e-05, elementwise_affine=True)
          (dropout1): Dropout(p=0.1, inplace=False)
          (dropout2): Dropout(p=0.1, inplace=False)
        )
      )
    )
    (pos): PositionalEncoding()
  )
  (classifier): MLP(
    (net): Sequential(
      (0): Linear(in_features=64, out_features=2, bias=True)
    )
  )
  (discriminator): DomainDiscriminator(
    (net): Sequential(
      (0): Linear(in_features=64, out_features=128, bias=True)
      (1): ReLU()
      (2): Linear(in_features=128, out_features=2, bias=True)
    )
  )
)

[ITER 3/3] Pseudo-labeling & AdaptNAS search...
[BiLevel] step 20/50 | train_loss=-0.7197 | val_acc=0.7965
[BiLevel] step 40/50 | train_loss=-0.4338 | val_acc=0.8140
[BiLevel] step 50/50 | train_loss=-0.6215 | val_acc=0.8140
  Candidate 1/5: val_acc=0.8667 | src_err=0.0000 | tgt_err=0.4444
[BiLevel] step 20/50 | train_loss=-0.7803 | val_acc=0.8140
…
  Candidate 4/5: val_acc=0.8667 | src_err=0.0000 | tgt_err=0.4444
[BiLevel] step 20/50 | train_loss=-0.5997 | val_acc=0.8140
[BiLevel] step 40/50 | train_loss=-0.6601 | val_acc=0.8721
[BiLevel] step 50/50 | train_loss=-0.7318 | val_acc=0.8953
  Candidate 5/5: val_acc=0.8667 | src_err=0.0000 | tgt_err=0.4444
[ITER 3] ✅ Best arch = ArchConfig(enc_filters=[16], enc_kernels=[5], enc_strides=[2], enc_pool=('avg', 2), enc_activation='relu', ar_layers=3, ar_heads=4, ar_hidden=64, clf_layers=1, clf_units=64, d_model=64)
[INFO] Selected architecture (A*) summary after iteration 3:
CandidateModel(
  (encoder): EncoderCNN(
    (net): Sequential(
      (0): Conv1d(38, 16, kernel_size=(5,), stride=(2,), padding=(2,))
      (1): BatchNorm1d(16, eps=1e-05, momentum=0.1, affine=True, track_running_stats=True)
      (2): ReLU()
      (3): AvgPool1d(kernel_size=(2,), stride=(2,), padding=(0,))
    )
  )
  (to_d): Conv1d(16, 64, kernel_size=(1,), stride=(1,))
  (ar): ARTransformer(
    (enc): TransformerEncoder(
      (layers): ModuleList(
        (0-2): 3 x TransformerEncoderLayer(
          (self_attn): MultiheadAttention(
            (out_proj): NonDynamicallyQuantizableLinear(in_features=64, out_features=64, bias=True)
          )
          (linear1): Linear(in_features=64, out_features=64, bias=True)
          (dropout): Dropout(p=0.1, inplace=False)
          (linear2): Linear(in_features=64, out_features=64, bias=True)
          (norm1): LayerNorm((64,), eps=1e-05, elementwise_affine=True)
          (norm2): LayerNorm((64,), eps=1e-05, elementwise_affine=True)
          (dropout1): Dropout(p=0.1, inplace=False)
          (dropout2): Dropout(p=0.1, inplace=False)
        )
      )
    )
    (pos): PositionalEncoding()
  )
  (classifier): MLP(
    (net): Sequential(
      (0): Linear(in_features=64, out_features=2, bias=True)
    )
  )
  (discriminator): DomainDiscriminator(
    (net): Sequential(
      (0): Linear(in_features=64, out_features=128, bias=True)
      (1): ReLU()
      (2): Linear(in_features=128, out_features=2, bias=True)
    )
  )
)
[INFO] Architecture operation probabilities:
  Op 0: 0.0867
  Op 1: 0.0896
  Op 2: 0.0952
  Op 3: 0.1496
  Op 4: 0.0755
  Op 5: 0.0897
  Op 6: 0.0112
  Op 7: 0.1533
  Op 8: 0.1457
  Op 9: 0.0339
  Op 10: 0.0695
[INFO] Pseudo-labels generated: 72 samples
[INFO] Average pseudo-label confidence: 0.9971
[INFO] Final training with best architecture...
…
