…
  Candidate 4/5: val_acc=1.0000 | src_err=0.0000 | tgt_err=0.0000
[BiLevel] step 20/50 | train_loss=-0.3160 | val_acc=0.9651
[BiLevel] step 40/50 | train_loss=-0.4145 | val_acc=0.9360
[BiLevel] step 50/50 | train_loss=-0.3831 | val_acc=0.9244
  Candidate 5/5: val_acc=0.9108 | src_err=0.2000 | tgt_err=0.0417
[ITER 1] ✅ Best arch = ArchConfig(enc_filters=[16, 64], enc_kernels=[3, 5], enc_strides=[2, 1], enc_pool=('avg', 2), enc_activation='relu', ar_layers=1, ar_heads=4, ar_hidden=64, clf_layers=1, clf_units=64, d_model=128)
[INFO] Selected architecture (A*) summary after iteration 1:
CandidateModel(
  (encoder): EncoderCNN(
    (net): Sequential(
      (0): Conv1d(38, 16, kernel_size=(3,), stride=(2,), padding=(1,))
      (1): BatchNorm1d(16, eps=1e-05, momentum=0.1, affine=True, track_running_stats=True)
      (2): ReLU()
      (3): AvgPool1d(kernel_size=(2,), stride=(2,), padding=(0,))
      (4): Conv1d(16, 64, kernel_size=(5,), stride=(1,), padding=(2,))
      (5): BatchNorm1d(64, eps=1e-05, momentum=0.1, affine=True, track_running_stats=True)
      (6): ReLU()
      (7): AvgPool1d(kernel_size=(2,), stride=(2,), padding=(0,))
    )
  )
  (to_d): Conv1d(64, 128, kernel_size=(1,), stride=(1,))
  (ar): ARTransformer(
    (enc): TransformerEncoder(
      (layers): ModuleList(
        (0): TransformerEncoderLayer(
          (self_attn): MultiheadAttention(
            (out_proj): NonDynamicallyQuantizableLinear(in_features=128, out_features=128, bias=True)
          )
          (linear1): Linear(in_features=128, out_features=64, bias=True)
          (dropout): Dropout(p=0.1, inplace=False)
          (linear2): Linear(in_features=64, out_features=128, bias=True)
          (norm1): LayerNorm((128,), eps=1e-05, elementwise_affine=True)
          (norm2): LayerNorm((128,), eps=1e-05, elementwise_affine=True)
          (dropout1): Dropout(p=0.1, inplace=False)
          (dropout2): Dropout(p=0.1, inplace=False)
        )
      )
    )
    (pos): PositionalEncoding()
  )
  (classifier): MLP(
    (net): Sequential(
      (0): Linear(in_features=128, out_features=2, bias=True)
    )
  )
  (discriminator): DomainDiscriminator(
    (net): Sequential(
      (0): Linear(in_features=128, out_features=128, bias=True)
      (1): ReLU()
      (2): Linear(in_features=128, out_features=2, bias=True)
    )
  )
)

[ITER 2/3] Pseudo-labeling & AdaptNAS search...
[BiLevel] step 20/50 | train_loss=-0.4858 | val_acc=0.9186
[BiLevel] step 40/50 | train_loss=-0.5979 | val_acc=0.9884
[BiLevel] step 50/50 | train_loss=-0.6849 | val_acc=0.9942
  Candidate 1/5: val_acc=1.0000 | src_err=0.0000 | tgt_err=0.0000
[BiLevel] step 20/50 | train_loss=-0.4590 | val_acc=0.9709
…
  Candidate 4/5: val_acc=0.9650 | src_err=0.0700 | tgt_err=0.0000
[BiLevel] step 20/50 | train_loss=-0.6069 | val_acc=0.9767
[BiLevel] step 40/50 | train_loss=-0.5960 | val_acc=0.9477
[BiLevel] step 50/50 | train_loss=-0.6057 | val_acc=0.9767
  Candidate 5/5: val_acc=0.9236 | src_err=0.0000 | tgt_err=0.1528
[ITER 2] ✅ Best arch = ArchConfig(enc_filters=[32], enc_kernels=[3], enc_strides=[2], enc_pool=None, enc_activation='relu', ar_layers=3, ar_heads=4, ar_hidden=128, clf_layers=1, clf_units=32, d_model=64)
[INFO] Selected architecture (A*) summary after iteration 2:
CandidateModel(
  (encoder): EncoderCNN(
    (net): Sequential(
      (0): Conv1d(38, 32, kernel_size=(3,), stride=(2,), padding=(1,))
      (1): BatchNorm1d(32, eps=1e-05, momentum=0.1, affine=True, track_running_stats=True)
      (2): ReLU()
    )
  )
  (to_d): Conv1d(32, 64, kernel_size=(1,), stride=(1,))
  (ar): ARTransformer(
    (enc): TransformerEncoder(
      (layers): ModuleList(
        (0-2): 3 x TransformerEncoderLayer(
          (self_attn): MultiheadAttention(
            (out_proj): NonDynamicallyQuantizableLinear(in_features=64, out_features=64, bias=True)
          )
          (linear1): Linear(in_features=64, out_features=128, bias=True)
          (dropout): Dropout(p=0.1, inplace=False)
          (linear2): Linear(in_features=128, out_features=64, bias=True)
          (norm1): LayerNorm((64,), eps=1e-05, elementwise_affine=True)
          (norm2): LayerNorm((64,), eps=1e-05, elementwise_affine=True)
          (dropout1): Dropout(p=0.1, inplace=False)
          (dropout2): Dropout(p=0.1, inplace=False)
        )
      )
    )
    (pos): PositionalEncoding()
  )
  (classifier): MLP(
    (net): Sequential(
      (0): Linear(in_features=64, out_features=2, bias=True)
    )
  )
  (discriminator): DomainDiscriminator(
    (net): Sequential(
      (0): Linear(in_features=64, out_features=128, bias=True)
      (1): ReLU()
      (2): Linear(in_features=128, out_features=2, bias=True)
    )
  )
)

[ITER 3/3] Pseudo-labeling & AdaptNAS search...
[BiLevel] step 20/50 | train_loss=-0.6943 | val_acc=0.7907
[BiLevel] step 40/50 | train_loss=-0.7031 | val_acc=0.9884
[BiLevel] step 50/50 | train_loss=-0.5925 | val_acc=0.9884
  Candidate 1/5: val_acc=0.9650 | src_err=0.0500 | tgt_err=0.0000
[BiLevel] step 20/50 | train_loss=-0.6487 | val_acc=0.9070
…
  Candidate 4/5: val_acc=0.9833 | src_err=0.0000 | tgt_err=0.0556
[BiLevel] step 20/50 | train_loss=-0.8696 | val_acc=0.8953
[BiLevel] step 40/50 | train_loss=-0.8828 | val_acc=0.9244
[BiLevel] step 50/50 | train_loss=-0.8232 | val_acc=0.9244
  Candidate 5/5: val_acc=0.9833 | src_err=0.0000 | tgt_err=0.0556
[ITER 3] ✅ Best arch = ArchConfig(enc_filters=[32], enc_kernels=[5], enc_strides=[2], enc_pool=None, enc_activation='lrelu', ar_layers=3, ar_heads=4, ar_hidden=64, clf_layers=1, clf_units=32, d_model=64)
[INFO] Selected architecture (A*) summary after iteration 3:
CandidateModel(
  (encoder): EncoderCNN(
    (net): Sequential(
      (0): Conv1d(38, 32, kernel_size=(5,), stride=(2,), padding=(2,))
      (1): BatchNorm1d(32, eps=1e-05, momentum=0.1, affine=True, track_running_stats=True)
      (2): ReLU()
    )
  )
  (to_d): Conv1d(32, 64, kernel_size=(1,), stride=(1,))
  (ar): ARTransformer(
    (enc): TransformerEncoder(
      (layers): ModuleList(
        (0-2): 3 x TransformerEncoderLayer(
          (self_attn): MultiheadAttention(
            (out_proj): NonDynamicallyQuantizableLinear(in_features=64, out_features=64, bias=True)
          )
          (linear1): Linear(in_features=64, out_features=64, bias=True)
          (dropout): Dropout(p=0.1, inplace=False)
          (linear2): Linear(in_features=64, out_features=64, bias=True)
          (norm1): LayerNorm((64,), eps=1e-05, elementwise_affine=True)
          (norm2): LayerNorm((64,), eps=1e-05, elementwise_affine=True)
          (dropout1): Dropout(p=0.1, inplace=False)
          (dropout2): Dropout(p=0.1, inplace=False)
        )
      )
    )
    (pos): PositionalEncoding()
  )
  (classifier): MLP(
    (net): Sequential(
      (0): Linear(in_features=64, out_features=2, bias=True)
    )
  )
  (discriminator): DomainDiscriminator(
    (net): Sequential(
      (0): Linear(in_features=64, out_features=128, bias=True)
      (1): ReLU()
      (2): Linear(in_features=128, out_features=2, bias=True)
    )
  )
)
[INFO] Architecture operation probabilities:
  Op 0: 0.0149
  Op 1: 0.0158
  Op 2: 0.1195
  Op 3: 0.0090
  Op 4: 0.2169
  Op 5: 0.1519
  Op 6: 0.0039
  Op 7: 0.0772
  Op 8: 0.0596
  Op 9: 0.0691
  Op 10: 0.2622
[INFO] Pseudo-labels generated: 72 samples
[INFO] Average pseudo-label confidence: 0.9991
[INFO] Final training with best architecture...
…
