…
  Candidate 4/5: val_acc=0.8489 | src_err=0.0000 | tgt_err=0.2159
[BiLevel] step 20/50 | train_loss=-0.0085 | val_acc=0.8830
[BiLevel] step 40/50 | train_loss=-0.0116 | val_acc=0.6915
[BiLevel] step 50/50 | train_loss=0.0074 | val_acc=0.7021
  Candidate 5/5: val_acc=0.8330 | src_err=0.0000 | tgt_err=0.2386
[ITER 1] ✅ Best arch = ArchConfig(enc_filters=[32, 16], enc_kernels=[3, 3], enc_strides=[1, 2], enc_pool=('max', 2), enc_activation='lrelu', ar_layers=1, ar_heads=4, ar_hidden=64, clf_layers=1, clf_units=64, d_model=64)
[INFO] Selected architecture (A*) summary after iteration 1:
CandidateModel(
  (encoder): EncoderCNN(
    (net): Sequential(
      (0): Conv1d(38, 32, kernel_size=(3,), stride=(1,), padding=(1,))
      (1): BatchNorm1d(32, eps=1e-05, momentum=0.1, affine=True, track_running_stats=True)
      (2): ReLU()
      (3): MaxPool1d(kernel_size=2, stride=2, padding=0, dilation=1, ceil_mode=False)
      (4): Conv1d(32, 16, kernel_size=(3,), stride=(2,), padding=(1,))
      (5): BatchNorm1d(16, eps=1e-05, momentum=0.1, affine=True, track_running_stats=True)
      (6): ReLU()
      (7): MaxPool1d(kernel_size=2, stride=2, padding=0, dilation=1, ceil_mode=False)
    )
  )
  (to_d): Conv1d(16, 64, kernel_size=(1,), stride=(1,))
  (ar): ARTransformer(
    (enc): TransformerEncoder(
      (layers): ModuleList(
        (0): TransformerEncoderLayer(
          (self_attn): MultiheadAttention(
            (out_proj): NonDynamicallyQuantizableLinear(in_features=64, out_features=64, bias=True)
          )
          (linear1): Linear(in_features=64, out_features=64, bias=True)
          (dropout): Dropout(p=0.1, inplace=False)
          (linear2): Linear(in_features=64, out_features=64, bias=True)
          (norm1): LayerNorm((64,), eps=1e-05, elementwise_affine=True)
          (norm2): LayerNorm((64,), eps=1e-05, elementwise_affine=True)
          (dropout1): Dropout(p=0.1, inplace=False)
          (dropout2): Dropout(p=0.1, inplace=False)
        )
      )
    )
    (pos): PositionalEncoding()
  )
  (classifier): MLP(
    (net): Sequential(
      (0): Linear(in_features=64, out_features=2, bias=True)
    )
  )
  (discriminator): DomainDiscriminator(
    (net): Sequential(
      (0): Linear(in_features=64, out_features=128, bias=True)
      (1): ReLU()
      (2): Linear(in_features=128, out_features=2, bias=True)
    )
  )
)

[ITER 2/3] Pseudo-labeling & AdaptNAS search...
[BiLevel] step 20/50 | train_loss=-0.0663 | val_acc=0.8989
[BiLevel] step 40/50 | train_loss=-0.2507 | val_acc=0.8989
[BiLevel] step 50/50 | train_loss=-0.2123 | val_acc=0.8989
  Candidate 1/5: val_acc=0.8920 | src_err=0.0000 | tgt_err=0.2159
[BiLevel] step 20/50 | train_loss=-0.0124 | val_acc=0.8936
…
  Candidate 4/5: val_acc=0.8466 | src_err=0.0000 | tgt_err=0.3068
[BiLevel] step 20/50 | train_loss=-0.2579 | val_acc=0.8564
[BiLevel] step 40/50 | train_loss=-0.1466 | val_acc=0.8777
[BiLevel] step 50/50 | train_loss=-0.2047 | val_acc=0.8830
  Candidate 5/5: val_acc=0.8864 | src_err=0.0000 | tgt_err=0.2273
[ITER 2] ✅ Best arch = ArchConfig(enc_filters=[32], enc_kernels=[3], enc_strides=[1], enc_pool=('max', 2), enc_activation='relu', ar_layers=2, ar_heads=2, ar_hidden=128, clf_layers=2, clf_units=64, d_model=128)
[INFO] Selected architecture (A*) summary after iteration 2:
CandidateModel(
  (encoder): EncoderCNN(
    (net): Sequential(
      (0): Conv1d(38, 32, kernel_size=(3,), stride=(1,), padding=(1,))
      (1): BatchNorm1d(32, eps=1e-05, momentum=0.1, affine=True, track_running_stats=True)
      (2): ReLU()
      (3): MaxPool1d(kernel_size=2, stride=2, padding=0, dilation=1, ceil_mode=False)
    )
  )
  (to_d): Conv1d(32, 128, kernel_size=(1,), stride=(1,))
  (ar): ARTransformer(
    (enc): TransformerEncoder(
      (layers): ModuleList(
        (0-1): 2 x TransformerEncoderLayer(
          (self_attn): MultiheadAttention(
            (out_proj): NonDynamicallyQuantizableLinear(in_features=128, out_features=128, bias=True)
          )
          (linear1): Linear(in_features=128, out_features=128, bias=True)
          (dropout): Dropout(p=0.1, inplace=False)
          (linear2): Linear(in_features=128, out_features=128, bias=True)
          (norm1): LayerNorm((128,), eps=1e-05, elementwise_affine=True)
          (norm2): LayerNorm((128,), eps=1e-05, elementwise_affine=True)
          (dropout1): Dropout(p=0.1, inplace=False)
          (dropout2): Dropout(p=0.1, inplace=False)
        )
      )
    )
    (pos): PositionalEncoding()
  )
  (classifier): MLP(
    (net): Sequential(
      (0): Linear(in_features=128, out_features=64, bias=True)
      (1): ReLU()
      (2): Linear(in_features=64, out_features=2, bias=True)
    )
  )
  (discriminator): DomainDiscriminator(
    (net): Sequential(
      (0): Linear(in_features=128, out_features=128, bias=True)
      (1): ReLU()
      (2): Linear(in_features=128, out_features=2, bias=True)
    )
  )
)

[ITER 3/3] Pseudo-labeling & AdaptNAS search...
[BiLevel] step 20/50 | train_loss=-0.6153 | val_acc=0.7872
[BiLevel] step 40/50 | train_loss=-0.4749 | val_acc=0.8830
[BiLevel] step 50/50 | train_loss=-0.3896 | val_acc=0.8830
  Candidate 1/5: val_acc=0.9045 | src_err=0.0000 | tgt_err=0.3182
[BiLevel] step 20/50 | train_loss=-0.5881 | val_acc=0.7660
…
  Candidate 4/5: val_acc=0.9114 | src_err=0.0000 | tgt_err=0.2955
[BiLevel] step 20/50 | train_loss=-0.5177 | val_acc=0.8883
[BiLevel] step 40/50 | train_loss=-0.2066 | val_acc=0.8936
[BiLevel] step 50/50 | train_loss=-0.1757 | val_acc=0.8936
  Candidate 5/5: val_acc=0.9352 | src_err=0.0000 | tgt_err=0.2159
[ITER 3] ✅ Best arch = ArchConfig(enc_filters=[16], enc_kernels=[3], enc_strides=[1], enc_pool=('avg', 2), enc_activation='relu', ar_layers=3, ar_heads=2, ar_hidden=128, clf_layers=2, clf_units=32, d_model=128)
[INFO] Selected architecture (A*) summary after iteration 3:
CandidateModel(
  (encoder): EncoderCNN(
    (net): Sequential(
      (0): Conv1d(38, 16, kernel_size=(3,), stride=(1,), padding=(1,))
      (1): BatchNorm1d(16, eps=1e-05, momentum=0.1, affine=True, track_running_stats=True)
      (2): ReLU()
      (3): AvgPool1d(kernel_size=(2,), stride=(2,), padding=(0,))
    )
  )
  (to_d): Conv1d(16, 128, kernel_size=(1,), stride=(1,))
  (ar): ARTransformer(
    (enc): TransformerEncoder(
      (layers): ModuleList(
        (0-2): 3 x TransformerEncoderLayer(
          (self_attn): MultiheadAttention(
            (out_proj): NonDynamicallyQuantizableLinear(in_features=128, out_features=128, bias=True)
          )
          (linear1): Linear(in_features=128, out_features=128, bias=True)
          (dropout): Dropout(p=0.1, inplace=False)
          (linear2): Linear(in_features=128, out_features=128, bias=True)
          (norm1): LayerNorm((128,), eps=1e-05, elementwise_affine=True)
          (norm2): LayerNorm((128,), eps=1e-05, elementwise_affine=True)
          (dropout1): Dropout(p=0.1, inplace=False)
          (dropout2): Dropout(p=0.1, inplace=False)
        )
      )
    )
    (pos): PositionalEncoding()
  )
  (classifier): MLP(
    (net): Sequential(
      (0): Linear(in_features=128, out_features=32, bias=True)
      (1): ReLU()
      (2): Linear(in_features=32, out_features=2, bias=True)
    )
  )
  (discriminator): DomainDiscriminator(
    (net): Sequential(
      (0): Linear(in_features=128, out_features=128, bias=True)
      (1): ReLU()
      (2): Linear(in_features=128, out_features=2, bias=True)
    )
  )
)
[INFO] Architecture operation probabilities:
  Op 0: 0.1152
  Op 1: 0.0753
  Op 2: 0.1907
  Op 3: 0.0087
  Op 4: 0.1034
  Op 5: 0.1863
  Op 6: 0.0716
  Op 7: 0.1494
  Op 8: 0.0291
  Op 9: 0.0488
  Op 10: 0.0214
[INFO] Pseudo-labels generated: 88 samples
[INFO] Average pseudo-label confidence: 0.9994
[INFO] Final training with best architecture...
…
