…
[BiLevel] step 20/50 | train_loss=-0.2694 | val_acc=0.9012
[BiLevel] step 40/50 | train_loss=-0.3232 | val_acc=0.9593
[BiLevel] step 50/50 | train_loss=-0.2062 | val_acc=0.9477
  Candidate 5/5: val_acc=0.9970 | src_err=0.0100 | tgt_err=0.0000
[ITER 1] ✅ Best arch = ArchConfig(enc_filters=[64, 64, 16], enc_kernels=[5, 3, 3], enc_strides=[1, 1, 2], enc_pool=('max', 2), enc_activation='relu', ar_layers=3, ar_heads=2, ar_hidden=128, clf_layers=1, clf_units=64, d_model=64)
[INFO] Selected architecture (A*) summary after iteration 1:
CandidateModel(
  (encoder): EncoderCNN(
    (net): Sequential(
      (0): Conv1d(38, 64, kernel_size=(5,), stride=(1,), padding=(2,))
      (1): BatchNorm1d(64, eps=1e-05, momentum=0.1, affine=True, track_running_stats=True)
      (2): ReLU()
      (3): MaxPool1d(kernel_size=2, stride=2, padding=0, dilation=1, ceil_mode=False)
      (4): Conv1d(64, 64, kernel_size=(3,), stride=(1,), padding=(1,))
      (5): BatchNorm1d(64, eps=1e-05, momentum=0.1, affine=True, track_running_stats=True)
      (6): ReLU()
      (7): MaxPool1d(kernel_size=2, stride=2, padding=0, dilation=1, ceil_mode=False)
      (8): Conv1d(64, 16, kernel_size=(3,), stride=(2,), padding=(1,))
      (9): BatchNorm1d(16, eps=1e-05, momentum=0.1, affine=True, track_running_stats=True)
      (10): ReLU()
      (11): MaxPool1d(kernel_size=2, stride=2, padding=0, dilation=1, ceil_mode=False)
    )
  )
  (to_d): Conv1d(16, 64, kernel_size=(1,), stride=(1,))
  (ar): ARTransformer(
    (enc): TransformerEncoder(
      (layers): ModuleList(
        (0-2): 3 x TransformerEncoderLayer(
          (self_attn): MultiheadAttention(
            (out_proj): NonDynamicallyQuantizableLinear(in_features=64, out_features=64, bias=True)
          )
          (linear1): Linear(in_features=64, out_features=128, bias=True)
          (dropout): Dropout(p=0.1, inplace=False)
          (linear2): Linear(in_features=128, out_features=64, bias=True)
          (norm1): LayerNorm((64,), eps=1e-05, elementwise_affine=True)
          (norm2): LayerNorm((64,), eps=1e-05, elementwise_affine=True)
          (dropout1): Dropout(p=0.1, inplace=False)
          (dropout2): Dropout(p=0.1, inplace=False)
        )
      )
    )
    (pos): PositionalEncoding()
  )
  (classifier): MLP(
    (net): Sequential(
      (0): Linear(in_features=64, out_features=2, bias=True)
    )
  )
  (discriminator): DomainDiscriminator(
    (net): Sequential(
      (0): Linear(in_features=64, out_features=128, bias=True)
      (1): ReLU()
      (2): Linear(in_features=128, out_features=2, bias=True)
    )
  )
)

[ITER 2/3] Pseudo-labeling & AdaptNAS search...
[BiLevel] step 20/50 | train_loss=-0.2246 | val_acc=0.8721
[BiLevel] step 40/50 | train_loss=-0.0465 | val_acc=0.8895
[BiLevel] step 50/50 | train_loss=-0.2092 | val_acc=0.8953
  Candidate 1/5: val_acc=0.8839 | src_err=0.0100 | tgt_err=0.2222
[BiLevel] step 20/50 | train_loss=-0.3016 | val_acc=0.8198
…
[BiLevel] step 20/50 | train_loss=-0.5062 | val_acc=0.9593
[BiLevel] step 40/50 | train_loss=-0.5755 | val_acc=0.9884
[BiLevel] step 50/50 | train_loss=-0.5731 | val_acc=0.9884
  Candidate 5/5: val_acc=0.9811 | src_err=0.0100 | tgt_err=0.0278
[ITER 2] ✅ Best arch = ArchConfig(enc_filters=[32, 32, 16], enc_kernels=[3, 5, 3], enc_strides=[2, 1, 2], enc_pool=None, enc_activation='relu', ar_layers=1, ar_heads=2, ar_hidden=64, clf_layers=1, clf_units=32, d_model=128)
[INFO] Selected architecture (A*) summary after iteration 2:
CandidateModel(
  (encoder): EncoderCNN(
    (net): Sequential(
      (0): Conv1d(38, 32, kernel_size=(3,), stride=(2,), padding=(1,))
      (1): BatchNorm1d(32, eps=1e-05, momentum=0.1, affine=True, track_running_stats=True)
      (2): ReLU()
      (3): Conv1d(32, 32, kernel_size=(5,), stride=(1,), padding=(2,))
      (4): BatchNorm1d(32, eps=1e-05, momentum=0.1, affine=True, track_running_stats=True)
      (5): ReLU()
      (6): Conv1d(32, 16, kernel_size=(3,), stride=(2,), padding=(1,))
      (7): BatchNorm1d(16, eps=1e-05, momentum=0.1, affine=True, track_running_stats=True)
      (8): ReLU()
    )
  )
  (to_d): Conv1d(16, 128, kernel_size=(1,), stride=(1,))
  (ar): ARTransformer(
    (enc): TransformerEncoder(
      (layers): ModuleList(
        (0): TransformerEncoderLayer(
          (self_attn): MultiheadAttention(
            (out_proj): NonDynamicallyQuantizableLinear(in_features=128, out_features=128, bias=True)
          )
          (linear1): Linear(in_features=128, out_features=64, bias=True)
          (dropout): Dropout(p=0.1, inplace=False)
          (linear2): Linear(in_features=64, out_features=128, bias=True)
          (norm1): LayerNorm((128,), eps=1e-05, elementwise_affine=True)
          (norm2): LayerNorm((128,), eps=1e-05, elementwise_affine=True)
          (dropout1): Dropout(p=0.1, inplace=False)
          (dropout2): Dropout(p=0.1, inplace=False)
        )
      )
    )
    (pos): PositionalEncoding()
  )
  (classifier): MLP(
    (net): Sequential(
      (0): Linear(in_features=128, out_features=2, bias=True)
    )
  )
  (discriminator): DomainDiscriminator(
    (net): Sequential(
      (0): Linear(in_features=128, out_features=128, bias=True)
      (1): ReLU()
      (2): Linear(in_features=128, out_features=2, bias=True)
    )
  )
)

[ITER 3/3] Pseudo-labeling & AdaptNAS search...
[BiLevel] step 20/50 | train_loss=-0.6913 | val_acc=0.7907
[BiLevel] step 40/50 | train_loss=-0.8674 | val_acc=0.8895
[BiLevel] step 50/50 | train_loss=-0.8277 | val_acc=0.8895
  Candidate 1/5: val_acc=0.9042 | src_err=0.0000 | tgt_err=0.3194
[BiLevel] step 20/50 | train_loss=-0.2060 | val_acc=0.8721
…
  Candidate 4/5: val_acc=0.8517 | src_err=0.2000 | tgt_err=0.0278
[BiLevel] step 20/50 | train_loss=-0.5892 | val_acc=0.9535
[BiLevel] step 40/50 | train_loss=-0.5345 | val_acc=0.9360
[BiLevel] step 50/50 | train_loss=-0.9439 | val_acc=0.9360
  Candidate 5/5: val_acc=0.8797 | src_err=0.1600 | tgt_err=0.0278
[ITER 3] ✅ Best arch = ArchConfig(enc_filters=[32], enc_kernels=[3], enc_strides=[1], enc_pool=('avg', 2), enc_activation='relu', ar_layers=3, ar_heads=2, ar_hidden=128, clf_layers=2, clf_units=64, d_model=128)
[INFO] Selected architecture (A*) summary after iteration 3:
CandidateModel(
  (encoder): EncoderCNN(
    (net): Sequential(
      (0): Conv1d(38, 32, kernel_size=(3,), stride=(1,), padding=(1,))
      (1): BatchNorm1d(32, eps=1e-05, momentum=0.1, affine=True, track_running_stats=True)
      (2): ReLU()
      (3): AvgPool1d(kernel_size=(2,), stride=(2,), padding=(0,))
    )
  )
  (to_d): Conv1d(32, 128, kernel_size=(1,), stride=(1,))
  (ar): ARTransformer(
    (enc): TransformerEncoder(
      (layers): ModuleList(
        (0-2): 3 x TransformerEncoderLayer(
          (self_attn): MultiheadAttention(
            (out_proj): NonDynamicallyQuantizableLinear(in_features=128, out_features=128, bias=True)
          )
          (linear1): Linear(in_features=128, out_features=128, bias=True)
          (dropout): Dropout(p=0.1, inplace=False)
          (linear2): Linear(in_features=128, out_features=128, bias=True)
          (norm1): LayerNorm((128,), eps=1e-05, elementwise_affine=True)
          (norm2): LayerNorm((128,), eps=1e-05, elementwise_affine=True)
          (dropout1): Dropout(p=0.1, inplace=False)
          (dropout2): Dropout(p=0.1, inplace=False)
        )
      )
    )
    (pos): PositionalEncoding()
  )
  (classifier): MLP(
    (net): Sequential(
      (0): Linear(in_features=128, out_features=64, bias=True)
      (1): ReLU()
      (2): Linear(in_features=64, out_features=2, bias=True)
    )
  )
  (discriminator): DomainDiscriminator(
    (net): Sequential(
      (0): Linear(in_features=128, out_features=128, bias=True)
      (1): ReLU()
      (2): Linear(in_features=128, out_features=2, bias=True)
    )
  )
)
[INFO] Architecture operation probabilities:
  Op 0: 0.0757
  Op 1: 0.0106
  Op 2: 0.0285
  Op 3: 0.0690
  Op 4: 0.0412
  Op 5: 0.0484
  Op 6: 0.0404
  Op 7: 0.1720
  Op 8: 0.0880
  Op 9: 0.3394
  Op 10: 0.0870
[INFO] Pseudo-labels generated: 72 samples
[INFO] Average pseudo-label confidence: 0.9939
[INFO] Final training with best architecture...
…
