…
  Candidate 4/5: val_acc=0.8950 | src_err=0.3500 | tgt_err=0.0000
[BiLevel] step 20/50 | train_loss=-0.2299 | val_acc=0.7733
[BiLevel] step 40/50 | train_loss=-0.2977 | val_acc=0.9767
[BiLevel] step 50/50 | train_loss=-0.3578 | val_acc=0.9767
  Candidate 5/5: val_acc=0.9730 | src_err=0.0900 | tgt_err=0.0000
[ITER 1] ✅ Best arch = ArchConfig(enc_filters=[32, 32], enc_kernels=[5, 3], enc_strides=[1, 1], enc_pool=('avg', 2), enc_activation='lrelu', ar_layers=3, ar_heads=4, ar_hidden=64, clf_layers=1, clf_units=32, d_model=64)
[INFO] Selected architecture (A*) summary after iteration 1:
CandidateModel(
  (encoder): EncoderCNN(
    (net): Sequential(
      (0): Conv1d(38, 32, kernel_size=(5,), stride=(1,), padding=(2,))
      (1): BatchNorm1d(32, eps=1e-05, momentum=0.1, affine=True, track_running_stats=True)
      (2): ReLU()
      (3): AvgPool1d(kernel_size=(2,), stride=(2,), padding=(0,))
      (4): Conv1d(32, 32, kernel_size=(3,), stride=(1,), padding=(1,))
      (5): BatchNorm1d(32, eps=1e-05, momentum=0.1, affine=True, track_running_stats=True)
      (6): ReLU()
      (7): AvgPool1d(kernel_size=(2,), stride=(2,), padding=(0,))
    )
  )
  (to_d): Conv1d(32, 64, kernel_size=(1,), stride=(1,))
  (ar): ARTransformer(
    (enc): TransformerEncoder(
      (layers): ModuleList(
        (0-2): 3 x TransformerEncoderLayer(
          (self_attn): MultiheadAttention(
            (out_proj): NonDynamicallyQuantizableLinear(in_features=64, out_features=64, bias=True)
          )
          (linear1): Linear(in_features=64, out_features=64, bias=True)
          (dropout): Dropout(p=0.1, inplace=False)
          (linear2): Linear(in_features=64, out_features=64, bias=True)
          (norm1): LayerNorm((64,), eps=1e-05, elementwise_affine=True)
          (norm2): LayerNorm((64,), eps=1e-05, elementwise_affine=True)
          (dropout1): Dropout(p=0.1, inplace=False)
          (dropout2): Dropout(p=0.1, inplace=False)
        )
      )
    )
    (pos): PositionalEncoding()
  )
  (classifier): MLP(
    (net): Sequential(
      (0): Linear(in_features=64, out_features=2, bias=True)
    )
  )
  (discriminator): DomainDiscriminator(
    (net): Sequential(
      (0): Linear(in_features=64, out_features=128, bias=True)
      (1): ReLU()
      (2): Linear(in_features=128, out_features=2, bias=True)
    )
  )
)

[ITER 2/3] Pseudo-labeling & AdaptNAS search...
[BiLevel] step 20/50 | train_loss=-0.3161 | val_acc=0.9477
[BiLevel] step 40/50 | train_loss=-0.0436 | val_acc=0.9593
[BiLevel] step 50/50 | train_loss=-0.5777 | val_acc=0.9651
  Candidate 1/5: val_acc=0.9581 | src_err=0.0700 | tgt_err=0.0139
[BiLevel] step 20/50 | train_loss=-0.3678 | val_acc=0.8895
…
  Candidate 4/5: val_acc=0.8283 | src_err=0.0100 | tgt_err=0.3333
[BiLevel] step 20/50 | train_loss=-0.2810 | val_acc=0.8663
[BiLevel] step 40/50 | train_loss=-0.4705 | val_acc=0.9070
[BiLevel] step 50/50 | train_loss=-0.4699 | val_acc=0.9128
  Candidate 5/5: val_acc=0.9603 | src_err=0.0100 | tgt_err=0.0694
[ITER 2] ✅ Best arch = ArchConfig(enc_filters=[16], enc_kernels=[5], enc_strides=[1], enc_pool=('avg', 2), enc_activation='relu', ar_layers=2, ar_heads=4, ar_hidden=64, clf_layers=1, clf_units=64, d_model=64)
[INFO] Selected architecture (A*) summary after iteration 2:
CandidateModel(
  (encoder): EncoderCNN(
    (net): Sequential(
      (0): Conv1d(38, 16, kernel_size=(5,), stride=(1,), padding=(2,))
      (1): BatchNorm1d(16, eps=1e-05, momentum=0.1, affine=True, track_running_stats=True)
      (2): ReLU()
      (3): AvgPool1d(kernel_size=(2,), stride=(2,), padding=(0,))
    )
  )
  (to_d): Conv1d(16, 64, kernel_size=(1,), stride=(1,))
  (ar): ARTransformer(
    (enc): TransformerEncoder(
      (layers): ModuleList(
        (0-1): 2 x TransformerEncoderLayer(
          (self_attn): MultiheadAttention(
            (out_proj): NonDynamicallyQuantizableLinear(in_features=64, out_features=64, bias=True)
          )
          (linear1): Linear(in_features=64, out_features=64, bias=True)
          (dropout): Dropout(p=0.1, inplace=False)
          (linear2): Linear(in_features=64, out_features=64, bias=True)
          (norm1): LayerNorm((64,), eps=1e-05, elementwise_affine=True)
          (norm2): LayerNorm((64,), eps=1e-05, elementwise_affine=True)
          (dropout1): Dropout(p=0.1, inplace=False)
          (dropout2): Dropout(p=0.1, inplace=False)
        )
      )
    )
    (pos): PositionalEncoding()
  )
  (classifier): MLP(
    (net): Sequential(
      (0): Linear(in_features=64, out_features=2, bias=True)
    )
  )
  (discriminator): DomainDiscriminator(
    (net): Sequential(
      (0): Linear(in_features=64, out_features=128, bias=True)
      (1): ReLU()
      (2): Linear(in_features=128, out_features=2, bias=True)
    )
  )
)

[ITER 3/3] Pseudo-labeling & AdaptNAS search...
[BiLevel] step 20/50 | train_loss=-0.5194 | val_acc=0.7907
[BiLevel] step 40/50 | train_loss=-0.6660 | val_acc=0.8256
[BiLevel] step 50/50 | train_loss=-0.5157 | val_acc=0.8256
  Candidate 1/5: val_acc=0.8750 | src_err=0.0000 | tgt_err=0.4167
[BiLevel] step 20/50 | train_loss=-0.6573 | val_acc=0.8256
…
[BiLevel] step 20/50 | train_loss=-0.5987 | val_acc=0.8605
[BiLevel] step 40/50 | train_loss=-0.4995 | val_acc=0.9302
[BiLevel] step 50/50 | train_loss=-0.5943 | val_acc=0.9535
  Candidate 5/5: val_acc=0.8982 | src_err=0.0800 | tgt_err=0.1528
[ITER 3] ✅ Best arch = ArchConfig(enc_filters=[64, 32, 32], enc_kernels=[3, 3, 5], enc_strides=[1, 2, 2], enc_pool=('avg', 2), enc_activation='relu', ar_layers=3, ar_heads=4, ar_hidden=128, clf_layers=1, clf_units=32, d_model=128)
[INFO] Selected architecture (A*) summary after iteration 3:
CandidateModel(
  (encoder): EncoderCNN(
    (net): Sequential(
      (0): Conv1d(38, 64, kernel_size=(3,), stride=(1,), padding=(1,))
      (1): BatchNorm1d(64, eps=1e-05, momentum=0.1, affine=True, track_running_stats=True)
      (2): ReLU()
      (3): AvgPool1d(kernel_size=(2,), stride=(2,), padding=(0,))
      (4): Conv1d(64, 32, kernel_size=(3,), stride=(2,), padding=(1,))
      (5): BatchNorm1d(32, eps=1e-05, momentum=0.1, affine=True, track_running_stats=True)
      (6): ReLU()
      (7): AvgPool1d(kernel_size=(2,), stride=(2,), padding=(0,))
      (8): Conv1d(32, 32, kernel_size=(5,), stride=(2,), padding=(2,))
      (9): BatchNorm1d(32, eps=1e-05, momentum=0.1, affine=True, track_running_stats=True)
      (10): ReLU()
      (11): AvgPool1d(kernel_size=(2,), stride=(2,), padding=(0,))
    )
  )
  (to_d): Conv1d(32, 128, kernel_size=(1,), stride=(1,))
  (ar): ARTransformer(
    (enc): TransformerEncoder(
      (layers): ModuleList(
        (0-2): 3 x TransformerEncoderLayer(
          (self_attn): MultiheadAttention(
            (out_proj): NonDynamicallyQuantizableLinear(in_features=128, out_features=128, bias=True)
          )
          (linear1): Linear(in_features=128, out_features=128, bias=True)
          (dropout): Dropout(p=0.1, inplace=False)
          (linear2): Linear(in_features=128, out_features=128, bias=True)
          (norm1): LayerNorm((128,), eps=1e-05, elementwise_affine=True)
          (norm2): LayerNorm((128,), eps=1e-05, elementwise_affine=True)
          (dropout1): Dropout(p=0.1, inplace=False)
          (dropout2): Dropout(p=0.1, inplace=False)
        )
      )
    )
    (pos): PositionalEncoding()
  )
  (classifier): MLP(
    (net): Sequential(
      (0): Linear(in_features=128, out_features=2, bias=True)
    )
  )
  (discriminator): DomainDiscriminator(
    (net): Sequential(
      (0): Linear(in_features=128, out_features=128, bias=True)
      (1): ReLU()
      (2): Linear(in_features=128, out_features=2, bias=True)
    )
  )
)
[INFO] Architecture operation probabilities:
  Op 0: 0.0860
  Op 1: 0.0139
  Op 2: 0.0351
  Op 3: 0.1056
  Op 4: 0.0790
  Op 5: 0.0559
  Op 6: 0.2145
  Op 7: 0.0861
  Op 8: 0.2030
  Op 9: 0.0647
  Op 10: 0.0562
[INFO] Pseudo-labels generated: 72 samples
[INFO] Average pseudo-label confidence: 0.9919
[INFO] Final training with best architecture...
…
