…
[BiLevel] step 20/50 | train_loss=-0.2838 | val_acc=0.6545
[BiLevel] step 40/50 | train_loss=-0.3030 | val_acc=0.6727
[BiLevel] step 50/50 | train_loss=-0.3003 | val_acc=0.6727
  Candidate 5/5: val_acc=0.7000 | src_err=1.0000 | tgt_err=0.0000
[ITER 1] ✅ Best arch = ArchConfig(enc_filters=[16, 16, 64], enc_kernels=[5, 3, 3], enc_strides=[1, 1, 1], enc_pool=None, enc_activation='lrelu', ar_layers=2, ar_heads=2, ar_hidden=128, clf_layers=2, clf_units=64, d_model=64)
[INFO] Selected architecture (A*) summary after iteration 1:
CandidateModel(
  (encoder): EncoderCNN(
    (net): Sequential(
      (0): Conv1d(38, 16, kernel_size=(5,), stride=(1,), padding=(2,))
      (1): BatchNorm1d(16, eps=1e-05, momentum=0.1, affine=True, track_running_stats=True)
      (2): ReLU()
      (3): Conv1d(16, 16, kernel_size=(3,), stride=(1,), padding=(1,))
      (4): BatchNorm1d(16, eps=1e-05, momentum=0.1, affine=True, track_running_stats=True)
      (5): ReLU()
      (6): Conv1d(16, 64, kernel_size=(3,), stride=(1,), padding=(1,))
      (7): BatchNorm1d(64, eps=1e-05, momentum=0.1, affine=True, track_running_stats=True)
      (8): ReLU()
    )
  )
  (to_d): Conv1d(64, 64, kernel_size=(1,), stride=(1,))
  (ar): ARTransformer(
    (enc): TransformerEncoder(
      (layers): ModuleList(
        (0-1): 2 x TransformerEncoderLayer(
          (self_attn): MultiheadAttention(
            (out_proj): NonDynamicallyQuantizableLinear(in_features=64, out_features=64, bias=True)
          )
          (linear1): Linear(in_features=64, out_features=128, bias=True)
          (dropout): Dropout(p=0.1, inplace=False)
          (linear2): Linear(in_features=128, out_features=64, bias=True)
          (norm1): LayerNorm((64,), eps=1e-05, elementwise_affine=True)
          (norm2): LayerNorm((64,), eps=1e-05, elementwise_affine=True)
          (dropout1): Dropout(p=0.1, inplace=False)
          (dropout2): Dropout(p=0.1, inplace=False)
        )
      )
    )
    (pos): PositionalEncoding()
  )
  (classifier): MLP(
    (net): Sequential(
      (0): Linear(in_features=64, out_features=64, bias=True)
      (1): ReLU()
      (2): Linear(in_features=64, out_features=2, bias=True)
    )
  )
  (discriminator): DomainDiscriminator(
    (net): Sequential(
      (0): Linear(in_features=64, out_features=128, bias=True)
      (1): ReLU()
      (2): Linear(in_features=128, out_features=2, bias=True)
    )
  )
)

[ITER 2/3] Pseudo-labeling & AdaptNAS search...
[BiLevel] step 20/50 | train_loss=-0.4331 | val_acc=0.6757
[BiLevel] step 40/50 | train_loss=-0.3307 | val_acc=0.6757
[BiLevel] step 50/50 | train_loss=-0.3149 | val_acc=0.6757
  Candidate 1/5: val_acc=0.5000 | src_err=1.0000 | tgt_err=0.0000
[BiLevel] step 20/50 | train_loss=-0.2221 | val_acc=0.6757
…
[BiLevel] step 20/50 | train_loss=-0.7385 | val_acc=0.6757
[BiLevel] step 40/50 | train_loss=-0.5336 | val_acc=0.6757
[BiLevel] step 50/50 | train_loss=-0.5291 | val_acc=0.6757
  Candidate 5/5: val_acc=0.5000 | src_err=1.0000 | tgt_err=0.0000
[ITER 2] ✅ Best arch = ArchConfig(enc_filters=[16, 64, 64], enc_kernels=[5, 5, 5], enc_strides=[2, 1, 1], enc_pool=('max', 2), enc_activation='lrelu', ar_layers=3, ar_heads=4, ar_hidden=128, clf_layers=1, clf_units=32, d_model=64)
[INFO] Selected architecture (A*) summary after iteration 2:
CandidateModel(
  (encoder): EncoderCNN(
    (net): Sequential(
      (0): Conv1d(38, 16, kernel_size=(5,), stride=(2,), padding=(2,))
      (1): BatchNorm1d(16, eps=1e-05, momentum=0.1, affine=True, track_running_stats=True)
      (2): ReLU()
      (3): MaxPool1d(kernel_size=2, stride=2, padding=0, dilation=1, ceil_mode=False)
      (4): Conv1d(16, 64, kernel_size=(5,), stride=(1,), padding=(2,))
      (5): BatchNorm1d(64, eps=1e-05, momentum=0.1, affine=True, track_running_stats=True)
      (6): ReLU()
      (7): MaxPool1d(kernel_size=2, stride=2, padding=0, dilation=1, ceil_mode=False)
      (8): Conv1d(64, 64, kernel_size=(5,), stride=(1,), padding=(2,))
      (9): BatchNorm1d(64, eps=1e-05, momentum=0.1, affine=True, track_running_stats=True)
      (10): ReLU()
      (11): MaxPool1d(kernel_size=2, stride=2, padding=0, dilation=1, ceil_mode=False)
    )
  )
  (to_d): Conv1d(64, 64, kernel_size=(1,), stride=(1,))
  (ar): ARTransformer(
    (enc): TransformerEncoder(
      (layers): ModuleList(
        (0-2): 3 x TransformerEncoderLayer(
          (self_attn): MultiheadAttention(
            (out_proj): NonDynamicallyQuantizableLinear(in_features=64, out_features=64, bias=True)
          )
          (linear1): Linear(in_features=64, out_features=128, bias=True)
          (dropout): Dropout(p=0.1, inplace=False)
          (linear2): Linear(in_features=128, out_features=64, bias=True)
          (norm1): LayerNorm((64,), eps=1e-05, elementwise_affine=True)
          (norm2): LayerNorm((64,), eps=1e-05, elementwise_affine=True)
          (dropout1): Dropout(p=0.1, inplace=False)
          (dropout2): Dropout(p=0.1, inplace=False)
        )
      )
    )
    (pos): PositionalEncoding()
  )
  (classifier): MLP(
    (net): Sequential(
      (0): Linear(in_features=64, out_features=2, bias=True)
    )
  )
  (discriminator): DomainDiscriminator(
    (net): Sequential(
      (0): Linear(in_features=64, out_features=128, bias=True)
      (1): ReLU()
      (2): Linear(in_features=128, out_features=2, bias=True)
    )
  )
)

[ITER 3/3] Pseudo-labeling & AdaptNAS search...
[BiLevel] step 20/50 | train_loss=-0.9841 | val_acc=0.6814
[BiLevel] step 40/50 | train_loss=-0.7051 | val_acc=0.6726
[BiLevel] step 50/50 | train_loss=-0.6591 | val_acc=0.6726
  Candidate 1/5: val_acc=0.7000 | src_err=0.0000 | tgt_err=1.0000
[BiLevel] step 20/50 | train_loss=-0.9030 | val_acc=0.6814
…
[BiLevel] step 20/50 | train_loss=-0.6032 | val_acc=0.6814
[BiLevel] step 40/50 | train_loss=-0.2885 | val_acc=0.6814
[BiLevel] step 50/50 | train_loss=-0.2637 | val_acc=0.6814
  Candidate 5/5: val_acc=0.3000 | src_err=1.0000 | tgt_err=0.0000
[ITER 3] ✅ Best arch = ArchConfig(enc_filters=[16, 32, 64], enc_kernels=[5, 5, 5], enc_strides=[2, 2, 1], enc_pool=('avg', 2), enc_activation='relu', ar_layers=2, ar_heads=4, ar_hidden=128, clf_layers=2, clf_units=32, d_model=128)
[INFO] Selected architecture (A*) summary after iteration 3:
CandidateModel(
  (encoder): EncoderCNN(
    (net): Sequential(
      (0): Conv1d(38, 16, kernel_size=(5,), stride=(2,), padding=(2,))
      (1): BatchNorm1d(16, eps=1e-05, momentum=0.1, affine=True, track_running_stats=True)
      (2): ReLU()
      (3): AvgPool1d(kernel_size=(2,), stride=(2,), padding=(0,))
      (4): Conv1d(16, 32, kernel_size=(5,), stride=(2,), padding=(2,))
      (5): BatchNorm1d(32, eps=1e-05, momentum=0.1, affine=True, track_running_stats=True)
      (6): ReLU()
      (7): AvgPool1d(kernel_size=(2,), stride=(2,), padding=(0,))
      (8): Conv1d(32, 64, kernel_size=(5,), stride=(1,), padding=(2,))
      (9): BatchNorm1d(64, eps=1e-05, momentum=0.1, affine=True, track_running_stats=True)
      (10): ReLU()
      (11): AvgPool1d(kernel_size=(2,), stride=(2,), padding=(0,))
    )
  )
  (to_d): Conv1d(64, 128, kernel_size=(1,), stride=(1,))
  (ar): ARTransformer(
    (enc): TransformerEncoder(
      (layers): ModuleList(
        (0-1): 2 x TransformerEncoderLayer(
          (self_attn): MultiheadAttention(
            (out_proj): NonDynamicallyQuantizableLinear(in_features=128, out_features=128, bias=True)
          )
          (linear1): Linear(in_features=128, out_features=128, bias=True)
          (dropout): Dropout(p=0.1, inplace=False)
          (linear2): Linear(in_features=128, out_features=128, bias=True)
          (norm1): LayerNorm((128,), eps=1e-05, elementwise_affine=True)
          (norm2): LayerNorm((128,), eps=1e-05, elementwise_affine=True)
          (dropout1): Dropout(p=0.1, inplace=False)
          (dropout2): Dropout(p=0.1, inplace=False)
        )
      )
    )
    (pos): PositionalEncoding()
  )
  (classifier): MLP(
    (net): Sequential(
      (0): Linear(in_features=128, out_features=32, bias=True)
      (1): ReLU()
      (2): Linear(in_features=32, out_features=2, bias=True)
    )
  )
  (discriminator): DomainDiscriminator(
    (net): Sequential(
      (0): Linear(in_features=128, out_features=128, bias=True)
      (1): ReLU()
      (2): Linear(in_features=128, out_features=2, bias=True)
    )
  )
)
[INFO] Architecture operation probabilities:
  Op 0: 0.3078
  Op 1: 0.1589
  Op 2: 0.0118
  Op 3: 0.0242
  Op 4: 0.0513
  Op 5: 0.0693
  Op 6: 0.0179
  Op 7: 0.1099
  Op 8: 0.0239
  Op 9: 0.0467
  Op 10: 0.1783
[INFO] Pseudo-labels generated: 13 samples
[INFO] Average pseudo-label confidence: 0.9636
[INFO] Final training with best architecture...
…
