…
[BiLevel] step 20/50 | train_loss=-0.2971 | val_acc=0.9651
[BiLevel] step 40/50 | train_loss=-0.3443 | val_acc=0.9360
[BiLevel] step 50/50 | train_loss=-0.3586 | val_acc=0.9477
  Candidate 5/5: val_acc=0.9783 | src_err=0.0400 | tgt_err=0.0139
[ITER 1] ✅ Best arch = ArchConfig(enc_filters=[64, 64, 16], enc_kernels=[3, 5, 3], enc_strides=[1, 2, 2], enc_pool=None, enc_activation='relu', ar_layers=2, ar_heads=2, ar_hidden=128, clf_layers=1, clf_units=64, d_model=128)
[INFO] Selected architecture (A*) summary after iteration 1:
CandidateModel(
  (encoder): EncoderCNN(
    (net): Sequential(
      (0): Conv1d(38, 64, kernel_size=(3,), stride=(1,), padding=(1,))
      (1): BatchNorm1d(64, eps=1e-05, momentum=0.1, affine=True, track_running_stats=True)
      (2): ReLU()
      (3): Conv1d(64, 64, kernel_size=(5,), stride=(2,), padding=(2,))
      (4): BatchNorm1d(64, eps=1e-05, momentum=0.1, affine=True, track_running_stats=True)
      (5): ReLU()
      (6): Conv1d(64, 16, kernel_size=(3,), stride=(2,), padding=(1,))
      (7): BatchNorm1d(16, eps=1e-05, momentum=0.1, affine=True, track_running_stats=True)
      (8): ReLU()
    )
  )
  (to_d): Conv1d(16, 128, kernel_size=(1,), stride=(1,))
  (ar): ARTransformer(
    (enc): TransformerEncoder(
      (layers): ModuleList(
        (0-1): 2 x TransformerEncoderLayer(
          (self_attn): MultiheadAttention(
            (out_proj): NonDynamicallyQuantizableLinear(in_features=128, out_features=128, bias=True)
          )
          (linear1): Linear(in_features=128, out_features=128, bias=True)
          (dropout): Dropout(p=0.1, inplace=False)
          (linear2): Linear(in_features=128, out_features=128, bias=True)
          (norm1): LayerNorm((128,), eps=1e-05, elementwise_affine=True)
          (norm2): LayerNorm((128,), eps=1e-05, elementwise_affine=True)
          (dropout1): Dropout(p=0.1, inplace=False)
          (dropout2): Dropout(p=0.1, inplace=False)
        )
      )
    )
    (pos): PositionalEncoding()
  )
  (classifier): MLP(
    (net): Sequential(
      (0): Linear(in_features=128, out_features=2, bias=True)
    )
  )
  (discriminator): DomainDiscriminator(
    (net): Sequential(
      (0): Linear(in_features=128, out_features=128, bias=True)
      (1): ReLU()
      (2): Linear(in_features=128, out_features=2, bias=True)
    )
  )
)

[ITER 2/3] Pseudo-labeling & AdaptNAS search...
[BiLevel] step 20/50 | train_loss=-0.4323 | val_acc=0.8663
[BiLevel] step 40/50 | train_loss=-0.0706 | val_acc=0.9302
[BiLevel] step 50/50 | train_loss=-0.1813 | val_acc=0.9593
  Candidate 1/5: val_acc=0.9131 | src_err=0.1600 | tgt_err=0.0139
[BiLevel] step 20/50 | train_loss=-0.4341 | val_acc=0.8721
…
  Candidate 4/5: val_acc=0.8264 | src_err=0.0000 | tgt_err=0.3472
[BiLevel] step 20/50 | train_loss=-0.3290 | val_acc=0.8663
[BiLevel] step 40/50 | train_loss=-0.3380 | val_acc=0.9942
[BiLevel] step 50/50 | train_loss=-0.2464 | val_acc=0.9826
  Candidate 5/5: val_acc=0.9931 | src_err=0.0000 | tgt_err=0.0139
[ITER 2] ✅ Best arch = ArchConfig(enc_filters=[32, 64], enc_kernels=[3, 3], enc_strides=[2, 2], enc_pool=None, enc_activation='lrelu', ar_layers=3, ar_heads=2, ar_hidden=128, clf_layers=1, clf_units=32, d_model=128)
[INFO] Selected architecture (A*) summary after iteration 2:
CandidateModel(
  (encoder): EncoderCNN(
    (net): Sequential(
      (0): Conv1d(38, 32, kernel_size=(3,), stride=(2,), padding=(1,))
      (1): BatchNorm1d(32, eps=1e-05, momentum=0.1, affine=True, track_running_stats=True)
      (2): ReLU()
      (3): Conv1d(32, 64, kernel_size=(3,), stride=(2,), padding=(1,))
      (4): BatchNorm1d(64, eps=1e-05, momentum=0.1, affine=True, track_running_stats=True)
      (5): ReLU()
    )
  )
  (to_d): Conv1d(64, 128, kernel_size=(1,), stride=(1,))
  (ar): ARTransformer(
    (enc): TransformerEncoder(
      (layers): ModuleList(
        (0-2): 3 x TransformerEncoderLayer(
          (self_attn): MultiheadAttention(
            (out_proj): NonDynamicallyQuantizableLinear(in_features=128, out_features=128, bias=True)
          )
          (linear1): Linear(in_features=128, out_features=128, bias=True)
          (dropout): Dropout(p=0.1, inplace=False)
          (linear2): Linear(in_features=128, out_features=128, bias=True)
          (norm1): LayerNorm((128,), eps=1e-05, elementwise_affine=True)
          (norm2): LayerNorm((128,), eps=1e-05, elementwise_affine=True)
          (dropout1): Dropout(p=0.1, inplace=False)
          (dropout2): Dropout(p=0.1, inplace=False)
        )
      )
    )
    (pos): PositionalEncoding()
  )
  (classifier): MLP(
    (net): Sequential(
      (0): Linear(in_features=128, out_features=2, bias=True)
    )
  )
  (discriminator): DomainDiscriminator(
    (net): Sequential(
      (0): Linear(in_features=128, out_features=128, bias=True)
      (1): ReLU()
      (2): Linear(in_features=128, out_features=2, bias=True)
    )
  )
)

[ITER 3/3] Pseudo-labeling & AdaptNAS search...
[BiLevel] step 20/50 | train_loss=-0.7390 | val_acc=0.8547
[BiLevel] step 40/50 | train_loss=-0.6030 | val_acc=0.9709
[BiLevel] step 50/50 | train_loss=-0.7786 | val_acc=0.9767
  Candidate 1/5: val_acc=0.9667 | src_err=0.0000 | tgt_err=0.1111
[BiLevel] step 20/50 | train_loss=-0.5997 | val_acc=0.8372
…
  Candidate 4/5: val_acc=0.9083 | src_err=0.0000 | tgt_err=0.3056
[BiLevel] step 20/50 | train_loss=-0.9811 | val_acc=0.8953
[BiLevel] step 40/50 | train_loss=-0.9619 | val_acc=0.9360
[BiLevel] step 50/50 | train_loss=-1.0565 | val_acc=0.9360
  Candidate 5/5: val_acc=0.9000 | src_err=0.0000 | tgt_err=0.3333
[ITER 3] ✅ Best arch = ArchConfig(enc_filters=[64, 64], enc_kernels=[3, 5], enc_strides=[2, 1], enc_pool=None, enc_activation='lrelu', ar_layers=1, ar_heads=4, ar_hidden=128, clf_layers=2, clf_units=64, d_model=64)
[INFO] Selected architecture (A*) summary after iteration 3:
CandidateModel(
  (encoder): EncoderCNN(
    (net): Sequential(
      (0): Conv1d(38, 64, kernel_size=(3,), stride=(2,), padding=(1,))
      (1): BatchNorm1d(64, eps=1e-05, momentum=0.1, affine=True, track_running_stats=True)
      (2): ReLU()
      (3): Conv1d(64, 64, kernel_size=(5,), stride=(1,), padding=(2,))
      (4): BatchNorm1d(64, eps=1e-05, momentum=0.1, affine=True, track_running_stats=True)
      (5): ReLU()
    )
  )
  (to_d): Conv1d(64, 64, kernel_size=(1,), stride=(1,))
  (ar): ARTransformer(
    (enc): TransformerEncoder(
      (layers): ModuleList(
        (0): TransformerEncoderLayer(
          (self_attn): MultiheadAttention(
            (out_proj): NonDynamicallyQuantizableLinear(in_features=64, out_features=64, bias=True)
          )
          (linear1): Linear(in_features=64, out_features=128, bias=True)
          (dropout): Dropout(p=0.1, inplace=False)
          (linear2): Linear(in_features=128, out_features=64, bias=True)
          (norm1): LayerNorm((64,), eps=1e-05, elementwise_affine=True)
          (norm2): LayerNorm((64,), eps=1e-05, elementwise_affine=True)
          (dropout1): Dropout(p=0.1, inplace=False)
          (dropout2): Dropout(p=0.1, inplace=False)
        )
      )
    )
    (pos): PositionalEncoding()
  )
  (classifier): MLP(
    (net): Sequential(
      (0): Linear(in_features=64, out_features=64, bias=True)
      (1): ReLU()
      (2): Linear(in_features=64, out_features=2, bias=True)
    )
  )
  (discriminator): DomainDiscriminator(
    (net): Sequential(
      (0): Linear(in_features=64, out_features=128, bias=True)
      (1): ReLU()
      (2): Linear(in_features=128, out_features=2, bias=True)
    )
  )
)
[INFO] Architecture operation probabilities:
  Op 0: 0.0386
  Op 1: 0.0318
  Op 2: 0.0869
  Op 3: 0.0112
  Op 4: 0.1211
  Op 5: 0.1184
  Op 6: 0.1041
  Op 7: 0.2046
  Op 8: 0.0549
  Op 9: 0.1735
  Op 10: 0.0550
[INFO] Pseudo-labels generated: 72 samples
[INFO] Average pseudo-label confidence: 0.9979
[INFO] Final training with best architecture...
…
