…
  Candidate 4/5: val_acc=0.7000 | src_err=1.0000 | tgt_err=0.0000
[BiLevel] step 20/50 | train_loss=-0.2125 | val_acc=0.6436
[BiLevel] step 40/50 | train_loss=-0.1375 | val_acc=0.6436
[BiLevel] step 50/50 | train_loss=-0.1439 | val_acc=0.6436
  Candidate 5/5: val_acc=0.7000 | src_err=1.0000 | tgt_err=0.0000
[ITER 1] ✅ Best arch = ArchConfig(enc_filters=[32], enc_kernels=[3], enc_strides=[2], enc_pool=('max', 2), enc_activation='relu', ar_layers=1, ar_heads=4, ar_hidden=128, clf_layers=2, clf_units=64, d_model=128)
[INFO] Selected architecture (A*) summary after iteration 1:
CandidateModel(
  (encoder): EncoderCNN(
    (net): Sequential(
      (0): Conv1d(38, 32, kernel_size=(3,), stride=(2,), padding=(1,))
      (1): BatchNorm1d(32, eps=1e-05, momentum=0.1, affine=True, track_running_stats=True)
      (2): ReLU()
      (3): MaxPool1d(kernel_size=2, stride=2, padding=0, dilation=1, ceil_mode=False)
    )
  )
  (to_d): Conv1d(32, 128, kernel_size=(1,), stride=(1,))
  (ar): ARTransformer(
    (enc): TransformerEncoder(
      (layers): ModuleList(
        (0): TransformerEncoderLayer(
          (self_attn): MultiheadAttention(
            (out_proj): NonDynamicallyQuantizableLinear(in_features=128, out_features=128, bias=True)
          )
          (linear1): Linear(in_features=128, out_features=128, bias=True)
          (dropout): Dropout(p=0.1, inplace=False)
          (linear2): Linear(in_features=128, out_features=128, bias=True)
          (norm1): LayerNorm((128,), eps=1e-05, elementwise_affine=True)
          (norm2): LayerNorm((128,), eps=1e-05, elementwise_affine=True)
          (dropout1): Dropout(p=0.1, inplace=False)
          (dropout2): Dropout(p=0.1, inplace=False)
        )
      )
    )
    (pos): PositionalEncoding()
  )
  (classifier): MLP(
    (net): Sequential(
      (0): Linear(in_features=128, out_features=64, bias=True)
      (1): ReLU()
      (2): Linear(in_features=64, out_features=2, bias=True)
    )
  )
  (discriminator): DomainDiscriminator(
    (net): Sequential(
      (0): Linear(in_features=128, out_features=128, bias=True)
      (1): ReLU()
      (2): Linear(in_features=128, out_features=2, bias=True)
    )
  )
)

[ITER 2/3] Pseudo-labeling & AdaptNAS search...
[BiLevel] step 20/50 | train_loss=-0.5068 | val_acc=1.0000
[BiLevel] step 40/50 | train_loss=-0.4122 | val_acc=1.0000
[BiLevel] step 50/50 | train_loss=-0.4182 | val_acc=1.0000
  Candidate 1/5: val_acc=1.0000 | src_err=0.0000 | tgt_err=0.0000
[BiLevel] step 20/50 | train_loss=-0.2289 | val_acc=1.0000
…
[BiLevel] step 20/50 | train_loss=-0.6213 | val_acc=0.6436
[BiLevel] step 40/50 | train_loss=-0.5990 | val_acc=0.6436
[BiLevel] step 50/50 | train_loss=-0.5919 | val_acc=0.6436
  Candidate 5/5: val_acc=0.5000 | src_err=1.0000 | tgt_err=0.0000
[ITER 2] ✅ Best arch = ArchConfig(enc_filters=[32, 32, 32], enc_kernels=[5, 3, 3], enc_strides=[2, 2, 2], enc_pool=None, enc_activation='lrelu', ar_layers=1, ar_heads=2, ar_hidden=64, clf_layers=1, clf_units=32, d_model=128)
[INFO] Selected architecture (A*) summary after iteration 2:
CandidateModel(
  (encoder): EncoderCNN(
    (net): Sequential(
      (0): Conv1d(38, 32, kernel_size=(5,), stride=(2,), padding=(2,))
      (1): BatchNorm1d(32, eps=1e-05, momentum=0.1, affine=True, track_running_stats=True)
      (2): ReLU()
      (3): Conv1d(32, 32, kernel_size=(3,), stride=(2,), padding=(1,))
      (4): BatchNorm1d(32, eps=1e-05, momentum=0.1, affine=True, track_running_stats=True)
      (5): ReLU()
      (6): Conv1d(32, 32, kernel_size=(3,), stride=(2,), padding=(1,))
      (7): BatchNorm1d(32, eps=1e-05, momentum=0.1, affine=True, track_running_stats=True)
      (8): ReLU()
    )
  )
  (to_d): Conv1d(32, 128, kernel_size=(1,), stride=(1,))
  (ar): ARTransformer(
    (enc): TransformerEncoder(
      (layers): ModuleList(
        (0): TransformerEncoderLayer(
          (self_attn): MultiheadAttention(
            (out_proj): NonDynamicallyQuantizableLinear(in_features=128, out_features=128, bias=True)
          )
          (linear1): Linear(in_features=128, out_features=64, bias=True)
          (dropout): Dropout(p=0.1, inplace=False)
          (linear2): Linear(in_features=64, out_features=128, bias=True)
          (norm1): LayerNorm((128,), eps=1e-05, elementwise_affine=True)
          (norm2): LayerNorm((128,), eps=1e-05, elementwise_affine=True)
          (dropout1): Dropout(p=0.1, inplace=False)
          (dropout2): Dropout(p=0.1, inplace=False)
        )
      )
    )
    (pos): PositionalEncoding()
  )
  (classifier): MLP(
    (net): Sequential(
      (0): Linear(in_features=128, out_features=2, bias=True)
    )
  )
  (discriminator): DomainDiscriminator(
    (net): Sequential(
      (0): Linear(in_features=128, out_features=128, bias=True)
      (1): ReLU()
      (2): Linear(in_features=128, out_features=2, bias=True)
    )
  )
)

[ITER 3/3] Pseudo-labeling & AdaptNAS search...
[BiLevel] step 20/50 | train_loss=-0.5753 | val_acc=1.0000
[BiLevel] step 40/50 | train_loss=-0.5363 | val_acc=1.0000
[BiLevel] step 50/50 | train_loss=-0.5362 | val_acc=1.0000
  Candidate 1/5: val_acc=1.0000 | src_err=0.0000 | tgt_err=0.0000
[BiLevel] step 20/50 | train_loss=-0.3095 | val_acc=1.0000
…
[BiLevel] step 20/50 | train_loss=-0.4372 | val_acc=1.0000
[BiLevel] step 40/50 | train_loss=-0.4548 | val_acc=1.0000
[BiLevel] step 50/50 | train_loss=-0.4274 | val_acc=1.0000
  Candidate 5/5: val_acc=1.0000 | src_err=0.0000 | tgt_err=0.0000
[ITER 3] ✅ Best arch = ArchConfig(enc_filters=[32, 32, 16], enc_kernels=[5, 3, 5], enc_strides=[1, 2, 2], enc_pool=('avg', 2), enc_activation='relu', ar_layers=2, ar_heads=2, ar_hidden=128, clf_layers=1, clf_units=32, d_model=128)
[INFO] Selected architecture (A*) summary after iteration 3:
CandidateModel(
  (encoder): EncoderCNN(
    (net): Sequential(
      (0): Conv1d(38, 32, kernel_size=(5,), stride=(1,), padding=(2,))
      (1): BatchNorm1d(32, eps=1e-05, momentum=0.1, affine=True, track_running_stats=True)
      (2): ReLU()
      (3): AvgPool1d(kernel_size=(2,), stride=(2,), padding=(0,))
      (4): Conv1d(32, 32, kernel_size=(3,), stride=(2,), padding=(1,))
      (5): BatchNorm1d(32, eps=1e-05, momentum=0.1, affine=True, track_running_stats=True)
      (6): ReLU()
      (7): AvgPool1d(kernel_size=(2,), stride=(2,), padding=(0,))
      (8): Conv1d(32, 16, kernel_size=(5,), stride=(2,), padding=(2,))
      (9): BatchNorm1d(16, eps=1e-05, momentum=0.1, affine=True, track_running_stats=True)
      (10): ReLU()
      (11): AvgPool1d(kernel_size=(2,), stride=(2,), padding=(0,))
    )
  )
  (to_d): Conv1d(16, 128, kernel_size=(1,), stride=(1,))
  (ar): ARTransformer(
    (enc): TransformerEncoder(
      (layers): ModuleList(
        (0-1): 2 x TransformerEncoderLayer(
          (self_attn): MultiheadAttention(
            (out_proj): NonDynamicallyQuantizableLinear(in_features=128, out_features=128, bias=True)
          )
          (linear1): Linear(in_features=128, out_features=128, bias=True)
          (dropout): Dropout(p=0.1, inplace=False)
          (linear2): Linear(in_features=128, out_features=128, bias=True)
          (norm1): LayerNorm((128,), eps=1e-05, elementwise_affine=True)
          (norm2): LayerNorm((128,), eps=1e-05, elementwise_affine=True)
          (dropout1): Dropout(p=0.1, inplace=False)
          (dropout2): Dropout(p=0.1, inplace=False)
        )
      )
    )
    (pos): PositionalEncoding()
  )
  (classifier): MLP(
    (net): Sequential(
      (0): Linear(in_features=128, out_features=2, bias=True)
    )
  )
  (discriminator): DomainDiscriminator(
    (net): Sequential(
      (0): Linear(in_features=128, out_features=128, bias=True)
      (1): ReLU()
      (2): Linear(in_features=128, out_features=2, bias=True)
    )
  )
)
[INFO] Architecture operation probabilities:
  Op 0: 0.0391
  Op 1: 0.1329
  Op 2: 0.2396
  Op 3: 0.0571
  Op 4: 0.0065
  Op 5: 0.0228
  Op 6: 0.0316
  Op 7: 0.0246
  Op 8: 0.3202
  Op 9: 0.1208
  Op 10: 0.0048
[INFO] Pseudo-labels generated: 1 samples
[INFO] Average pseudo-label confidence: 1.0000
[INFO] Final training with best architecture...
…
