…
  Candidate 4/5: val_acc=0.9370 | src_err=0.2100 | tgt_err=0.0000
[BiLevel] step 20/50 | train_loss=-0.2129 | val_acc=0.8488
[BiLevel] step 40/50 | train_loss=-0.0833 | val_acc=0.9302
[BiLevel] step 50/50 | train_loss=-0.1291 | val_acc=0.9360
  Candidate 5/5: val_acc=0.8473 | src_err=0.1200 | tgt_err=0.1667
[ITER 1] ✅ Best arch = ArchConfig(enc_filters=[64], enc_kernels=[3], enc_strides=[1], enc_pool=('max', 2), enc_activation='lrelu', ar_layers=2, ar_heads=2, ar_hidden=64, clf_layers=1, clf_units=64, d_model=128)
[INFO] Selected architecture (A*) summary after iteration 1:
CandidateModel(
  (encoder): EncoderCNN(
    (net): Sequential(
      (0): Conv1d(38, 64, kernel_size=(3,), stride=(1,), padding=(1,))
      (1): BatchNorm1d(64, eps=1e-05, momentum=0.1, affine=True, track_running_stats=True)
      (2): ReLU()
      (3): MaxPool1d(kernel_size=2, stride=2, padding=0, dilation=1, ceil_mode=False)
    )
  )
  (to_d): Conv1d(64, 128, kernel_size=(1,), stride=(1,))
  (ar): ARTransformer(
    (enc): TransformerEncoder(
      (layers): ModuleList(
        (0-1): 2 x TransformerEncoderLayer(
          (self_attn): MultiheadAttention(
            (out_proj): NonDynamicallyQuantizableLinear(in_features=128, out_features=128, bias=True)
          )
          (linear1): Linear(in_features=128, out_features=64, bias=True)
          (dropout): Dropout(p=0.1, inplace=False)
          (linear2): Linear(in_features=64, out_features=128, bias=True)
          (norm1): LayerNorm((128,), eps=1e-05, elementwise_affine=True)
          (norm2): LayerNorm((128,), eps=1e-05, elementwise_affine=True)
          (dropout1): Dropout(p=0.1, inplace=False)
          (dropout2): Dropout(p=0.1, inplace=False)
        )
      )
    )
    (pos): PositionalEncoding()
  )
  (classifier): MLP(
    (net): Sequential(
      (0): Linear(in_features=128, out_features=2, bias=True)
    )
  )
  (discriminator): DomainDiscriminator(
    (net): Sequential(
      (0): Linear(in_features=128, out_features=128, bias=True)
      (1): ReLU()
      (2): Linear(in_features=128, out_features=2, bias=True)
    )
  )
)

[ITER 2/3] Pseudo-labeling & AdaptNAS search...
[BiLevel] step 20/50 | train_loss=-0.4006 | val_acc=0.8246
[BiLevel] step 40/50 | train_loss=-0.4837 | val_acc=0.8187
[BiLevel] step 50/50 | train_loss=-0.5394 | val_acc=0.8187
  Candidate 1/5: val_acc=0.8659 | src_err=0.2400 | tgt_err=0.0282
[BiLevel] step 20/50 | train_loss=-0.2694 | val_acc=0.8596
…
[BiLevel] step 20/50 | train_loss=-0.0821 | val_acc=0.8480
[BiLevel] step 40/50 | train_loss=-0.5468 | val_acc=0.9181
[BiLevel] step 50/50 | train_loss=-0.7440 | val_acc=0.9181
  Candidate 5/5: val_acc=0.9180 | src_err=0.1500 | tgt_err=0.0141
[ITER 2] ✅ Best arch = ArchConfig(enc_filters=[32, 16, 32], enc_kernels=[5, 5, 5], enc_strides=[2, 2, 2], enc_pool=('max', 2), enc_activation='relu', ar_layers=2, ar_heads=2, ar_hidden=64, clf_layers=2, clf_units=64, d_model=128)
[INFO] Selected architecture (A*) summary after iteration 2:
CandidateModel(
  (encoder): EncoderCNN(
    (net): Sequential(
      (0): Conv1d(38, 32, kernel_size=(5,), stride=(2,), padding=(2,))
      (1): BatchNorm1d(32, eps=1e-05, momentum=0.1, affine=True, track_running_stats=True)
      (2): ReLU()
      (3): MaxPool1d(kernel_size=2, stride=2, padding=0, dilation=1, ceil_mode=False)
      (4): Conv1d(32, 16, kernel_size=(5,), stride=(2,), padding=(2,))
      (5): BatchNorm1d(16, eps=1e-05, momentum=0.1, affine=True, track_running_stats=True)
      (6): ReLU()
      (7): MaxPool1d(kernel_size=2, stride=2, padding=0, dilation=1, ceil_mode=False)
      (8): Conv1d(16, 32, kernel_size=(5,), stride=(2,), padding=(2,))
      (9): BatchNorm1d(32, eps=1e-05, momentum=0.1, affine=True, track_running_stats=True)
      (10): ReLU()
      (11): MaxPool1d(kernel_size=2, stride=2, padding=0, dilation=1, ceil_mode=False)
    )
  )
  (to_d): Conv1d(32, 128, kernel_size=(1,), stride=(1,))
  (ar): ARTransformer(
    (enc): TransformerEncoder(
      (layers): ModuleList(
        (0-1): 2 x TransformerEncoderLayer(
          (self_attn): MultiheadAttention(
            (out_proj): NonDynamicallyQuantizableLinear(in_features=128, out_features=128, bias=True)
          )
          (linear1): Linear(in_features=128, out_features=64, bias=True)
          (dropout): Dropout(p=0.1, inplace=False)
          (linear2): Linear(in_features=64, out_features=128, bias=True)
          (norm1): LayerNorm((128,), eps=1e-05, elementwise_affine=True)
          (norm2): LayerNorm((128,), eps=1e-05, elementwise_affine=True)
          (dropout1): Dropout(p=0.1, inplace=False)
          (dropout2): Dropout(p=0.1, inplace=False)
        )
      )
    )
    (pos): PositionalEncoding()
  )
  (classifier): MLP(
    (net): Sequential(
      (0): Linear(in_features=128, out_features=64, bias=True)
      (1): ReLU()
      (2): Linear(in_features=64, out_features=2, bias=True)
    )
  )
  (discriminator): DomainDiscriminator(
    (net): Sequential(
      (0): Linear(in_features=128, out_features=128, bias=True)
      (1): ReLU()
      (2): Linear(in_features=128, out_features=2, bias=True)
    )
  )
)

[ITER 3/3] Pseudo-labeling & AdaptNAS search...
[BiLevel] step 20/50 | train_loss=-0.8344 | val_acc=0.8663
[BiLevel] step 40/50 | train_loss=-0.7329 | val_acc=0.8547
[BiLevel] step 50/50 | train_loss=-0.8505 | val_acc=0.8663
  Candidate 1/5: val_acc=0.8387 | src_err=0.0400 | tgt_err=0.4444
[BiLevel] step 20/50 | train_loss=-0.6452 | val_acc=0.8023
…
  Candidate 4/5: val_acc=0.8527 | src_err=0.0200 | tgt_err=0.4444
[BiLevel] step 20/50 | train_loss=-0.7768 | val_acc=0.8953
[BiLevel] step 40/50 | train_loss=-0.3775 | val_acc=0.9360
[BiLevel] step 50/50 | train_loss=-0.7258 | val_acc=0.9477
  Candidate 5/5: val_acc=0.8437 | src_err=0.1400 | tgt_err=0.1944
[ITER 3] ✅ Best arch = ArchConfig(enc_filters=[32], enc_kernels=[3], enc_strides=[2], enc_pool=('avg', 2), enc_activation='relu', ar_layers=3, ar_heads=2, ar_hidden=128, clf_layers=2, clf_units=64, d_model=128)
[INFO] Selected architecture (A*) summary after iteration 3:
CandidateModel(
  (encoder): EncoderCNN(
    (net): Sequential(
      (0): Conv1d(38, 32, kernel_size=(3,), stride=(2,), padding=(1,))
      (1): BatchNorm1d(32, eps=1e-05, momentum=0.1, affine=True, track_running_stats=True)
      (2): ReLU()
      (3): AvgPool1d(kernel_size=(2,), stride=(2,), padding=(0,))
    )
  )
  (to_d): Conv1d(32, 128, kernel_size=(1,), stride=(1,))
  (ar): ARTransformer(
    (enc): TransformerEncoder(
      (layers): ModuleList(
        (0-2): 3 x TransformerEncoderLayer(
          (self_attn): MultiheadAttention(
            (out_proj): NonDynamicallyQuantizableLinear(in_features=128, out_features=128, bias=True)
          )
          (linear1): Linear(in_features=128, out_features=128, bias=True)
          (dropout): Dropout(p=0.1, inplace=False)
          (linear2): Linear(in_features=128, out_features=128, bias=True)
          (norm1): LayerNorm((128,), eps=1e-05, elementwise_affine=True)
          (norm2): LayerNorm((128,), eps=1e-05, elementwise_affine=True)
          (dropout1): Dropout(p=0.1, inplace=False)
          (dropout2): Dropout(p=0.1, inplace=False)
        )
      )
    )
    (pos): PositionalEncoding()
  )
  (classifier): MLP(
    (net): Sequential(
      (0): Linear(in_features=128, out_features=64, bias=True)
      (1): ReLU()
      (2): Linear(in_features=64, out_features=2, bias=True)
    )
  )
  (discriminator): DomainDiscriminator(
    (net): Sequential(
      (0): Linear(in_features=128, out_features=128, bias=True)
      (1): ReLU()
      (2): Linear(in_features=128, out_features=2, bias=True)
    )
  )
)
[INFO] Architecture operation probabilities:
  Op 0: 0.0540
  Op 1: 0.0321
  Op 2: 0.0123
  Op 3: 0.0971
  Op 4: 0.1449
  Op 5: 0.0279
  Op 6: 0.0448
  Op 7: 0.0635
  Op 8: 0.0728
  Op 9: 0.3723
  Op 10: 0.0784
[INFO] Pseudo-labels generated: 72 samples
[INFO] Average pseudo-label confidence: 0.9745
[INFO] Final training with best architecture...
…
