…
[BiLevel] step 20/50 | train_loss=-0.1478 | val_acc=0.8059
[BiLevel] step 40/50 | train_loss=-0.2177 | val_acc=0.8235
[BiLevel] step 50/50 | train_loss=-0.1382 | val_acc=0.8294
  Candidate 5/5: val_acc=0.8960 | src_err=0.2800 | tgt_err=0.0286
[ITER 1] ✅ Best arch = ArchConfig(enc_filters=[16, 16, 16], enc_kernels=[5, 5, 3], enc_strides=[1, 1, 1], enc_pool=('max', 2), enc_activation='relu', ar_layers=3, ar_heads=2, ar_hidden=64, clf_layers=2, clf_units=32, d_model=64)
[INFO] Selected architecture (A*) summary after iteration 1:
CandidateModel(
  (encoder): EncoderCNN(
    (net): Sequential(
      (0): Conv1d(38, 16, kernel_size=(5,), stride=(1,), padding=(2,))
      (1): BatchNorm1d(16, eps=1e-05, momentum=0.1, affine=True, track_running_stats=True)
      (2): ReLU()
      (3): MaxPool1d(kernel_size=2, stride=2, padding=0, dilation=1, ceil_mode=False)
      (4): Conv1d(16, 16, kernel_size=(5,), stride=(1,), padding=(2,))
      (5): BatchNorm1d(16, eps=1e-05, momentum=0.1, affine=True, track_running_stats=True)
      (6): ReLU()
      (7): MaxPool1d(kernel_size=2, stride=2, padding=0, dilation=1, ceil_mode=False)
      (8): Conv1d(16, 16, kernel_size=(3,), stride=(1,), padding=(1,))
      (9): BatchNorm1d(16, eps=1e-05, momentum=0.1, affine=True, track_running_stats=True)
      (10): ReLU()
      (11): MaxPool1d(kernel_size=2, stride=2, padding=0, dilation=1, ceil_mode=False)
    )
  )
  (to_d): Conv1d(16, 64, kernel_size=(1,), stride=(1,))
  (ar): ARTransformer(
    (enc): TransformerEncoder(
      (layers): ModuleList(
        (0-2): 3 x TransformerEncoderLayer(
          (self_attn): MultiheadAttention(
            (out_proj): NonDynamicallyQuantizableLinear(in_features=64, out_features=64, bias=True)
          )
          (linear1): Linear(in_features=64, out_features=64, bias=True)
          (dropout): Dropout(p=0.1, inplace=False)
          (linear2): Linear(in_features=64, out_features=64, bias=True)
          (norm1): LayerNorm((64,), eps=1e-05, elementwise_affine=True)
          (norm2): LayerNorm((64,), eps=1e-05, elementwise_affine=True)
          (dropout1): Dropout(p=0.1, inplace=False)
          (dropout2): Dropout(p=0.1, inplace=False)
        )
      )
    )
    (pos): PositionalEncoding()
  )
  (classifier): MLP(
    (net): Sequential(
      (0): Linear(in_features=64, out_features=32, bias=True)
      (1): ReLU()
      (2): Linear(in_features=32, out_features=2, bias=True)
    )
  )
  (discriminator): DomainDiscriminator(
    (net): Sequential(
      (0): Linear(in_features=64, out_features=128, bias=True)
      (1): ReLU()
      (2): Linear(in_features=128, out_features=2, bias=True)
    )
  )
)

[ITER 2/3] Pseudo-labeling & AdaptNAS search...
[BiLevel] step 20/50 | train_loss=-0.4098 | val_acc=0.8713
[BiLevel] step 40/50 | train_loss=-0.4259 | val_acc=0.8538
[BiLevel] step 50/50 | train_loss=-0.3118 | val_acc=0.8538
  Candidate 1/5: val_acc=0.9089 | src_err=0.1400 | tgt_err=0.0423
[BiLevel] step 20/50 | train_loss=-0.3781 | val_acc=0.8538
…
  Candidate 4/5: val_acc=0.9568 | src_err=0.0300 | tgt_err=0.0563
[BiLevel] step 20/50 | train_loss=-0.3039 | val_acc=0.7895
[BiLevel] step 40/50 | train_loss=-0.4397 | val_acc=0.8538
[BiLevel] step 50/50 | train_loss=-0.3478 | val_acc=0.8538
  Candidate 5/5: val_acc=0.9139 | src_err=0.1300 | tgt_err=0.0423
[ITER 2] ✅ Best arch = ArchConfig(enc_filters=[16, 64], enc_kernels=[5, 3], enc_strides=[1, 1], enc_pool=None, enc_activation='relu', ar_layers=3, ar_heads=2, ar_hidden=64, clf_layers=1, clf_units=64, d_model=128)
[INFO] Selected architecture (A*) summary after iteration 2:
CandidateModel(
  (encoder): EncoderCNN(
    (net): Sequential(
      (0): Conv1d(38, 16, kernel_size=(5,), stride=(1,), padding=(2,))
      (1): BatchNorm1d(16, eps=1e-05, momentum=0.1, affine=True, track_running_stats=True)
      (2): ReLU()
      (3): Conv1d(16, 64, kernel_size=(3,), stride=(1,), padding=(1,))
      (4): BatchNorm1d(64, eps=1e-05, momentum=0.1, affine=True, track_running_stats=True)
      (5): ReLU()
    )
  )
  (to_d): Conv1d(64, 128, kernel_size=(1,), stride=(1,))
  (ar): ARTransformer(
    (enc): TransformerEncoder(
      (layers): ModuleList(
        (0-2): 3 x TransformerEncoderLayer(
          (self_attn): MultiheadAttention(
            (out_proj): NonDynamicallyQuantizableLinear(in_features=128, out_features=128, bias=True)
          )
          (linear1): Linear(in_features=128, out_features=64, bias=True)
          (dropout): Dropout(p=0.1, inplace=False)
          (linear2): Linear(in_features=64, out_features=128, bias=True)
          (norm1): LayerNorm((128,), eps=1e-05, elementwise_affine=True)
          (norm2): LayerNorm((128,), eps=1e-05, elementwise_affine=True)
          (dropout1): Dropout(p=0.1, inplace=False)
          (dropout2): Dropout(p=0.1, inplace=False)
        )
      )
    )
    (pos): PositionalEncoding()
  )
  (classifier): MLP(
    (net): Sequential(
      (0): Linear(in_features=128, out_features=2, bias=True)
    )
  )
  (discriminator): DomainDiscriminator(
    (net): Sequential(
      (0): Linear(in_features=128, out_features=128, bias=True)
      (1): ReLU()
      (2): Linear(in_features=128, out_features=2, bias=True)
    )
  )
)

[ITER 3/3] Pseudo-labeling & AdaptNAS search...
[BiLevel] step 20/50 | train_loss=-0.6476 | val_acc=0.8107
[BiLevel] step 40/50 | train_loss=-0.5692 | val_acc=0.8166
[BiLevel] step 50/50 | train_loss=-0.6455 | val_acc=0.8166
  Candidate 1/5: val_acc=0.8696 | src_err=0.0000 | tgt_err=0.4348
[BiLevel] step 20/50 | train_loss=-0.8184 | val_acc=0.8047
…
[BiLevel] step 20/50 | train_loss=-0.6247 | val_acc=0.8107
[BiLevel] step 40/50 | train_loss=-0.7803 | val_acc=0.8107
[BiLevel] step 50/50 | train_loss=-0.6804 | val_acc=0.8047
  Candidate 5/5: val_acc=0.8756 | src_err=0.0100 | tgt_err=0.3913
[ITER 3] ✅ Best arch = ArchConfig(enc_filters=[16, 16, 16], enc_kernels=[3, 5, 3], enc_strides=[1, 2, 1], enc_pool=('max', 2), enc_activation='lrelu', ar_layers=3, ar_heads=2, ar_hidden=128, clf_layers=2, clf_units=32, d_model=128)
[INFO] Selected architecture (A*) summary after iteration 3:
CandidateModel(
  (encoder): EncoderCNN(
    (net): Sequential(
      (0): Conv1d(38, 16, kernel_size=(3,), stride=(1,), padding=(1,))
      (1): BatchNorm1d(16, eps=1e-05, momentum=0.1, affine=True, track_running_stats=True)
      (2): ReLU()
      (3): MaxPool1d(kernel_size=2, stride=2, padding=0, dilation=1, ceil_mode=False)
      (4): Conv1d(16, 16, kernel_size=(5,), stride=(2,), padding=(2,))
      (5): BatchNorm1d(16, eps=1e-05, momentum=0.1, affine=True, track_running_stats=True)
      (6): ReLU()
      (7): MaxPool1d(kernel_size=2, stride=2, padding=0, dilation=1, ceil_mode=False)
      (8): Conv1d(16, 16, kernel_size=(3,), stride=(1,), padding=(1,))
      (9): BatchNorm1d(16, eps=1e-05, momentum=0.1, affine=True, track_running_stats=True)
      (10): ReLU()
      (11): MaxPool1d(kernel_size=2, stride=2, padding=0, dilation=1, ceil_mode=False)
    )
  )
  (to_d): Conv1d(16, 128, kernel_size=(1,), stride=(1,))
  (ar): ARTransformer(
    (enc): TransformerEncoder(
      (layers): ModuleList(
        (0-2): 3 x TransformerEncoderLayer(
          (self_attn): MultiheadAttention(
            (out_proj): NonDynamicallyQuantizableLinear(in_features=128, out_features=128, bias=True)
          )
          (linear1): Linear(in_features=128, out_features=128, bias=True)
          (dropout): Dropout(p=0.1, inplace=False)
          (linear2): Linear(in_features=128, out_features=128, bias=True)
          (norm1): LayerNorm((128,), eps=1e-05, elementwise_affine=True)
          (norm2): LayerNorm((128,), eps=1e-05, elementwise_affine=True)
          (dropout1): Dropout(p=0.1, inplace=False)
          (dropout2): Dropout(p=0.1, inplace=False)
        )
      )
    )
    (pos): PositionalEncoding()
  )
  (classifier): MLP(
    (net): Sequential(
      (0): Linear(in_features=128, out_features=32, bias=True)
      (1): ReLU()
      (2): Linear(in_features=32, out_features=2, bias=True)
    )
  )
  (discriminator): DomainDiscriminator(
    (net): Sequential(
      (0): Linear(in_features=128, out_features=128, bias=True)
      (1): ReLU()
      (2): Linear(in_features=128, out_features=2, bias=True)
    )
  )
)
[INFO] Architecture operation probabilities:
  Op 0: 0.0485
  Op 1: 0.2074
  Op 2: 0.1125
  Op 3: 0.1164
  Op 4: 0.0505
  Op 5: 0.0442
  Op 6: 0.0353
  Op 7: 0.0664
  Op 8: 0.0462
  Op 9: 0.2058
  Op 10: 0.0669
[INFO] Pseudo-labels generated: 69 samples
[INFO] Average pseudo-label confidence: 0.9711
[INFO] Final training with best architecture...
…
